rl/save_model/model_3500000(V1).pth (torch, 140445 bytes, 6 tensors)

net.0.weight f4 [128, 120]
0	0xbd929336	-0.071569845
1	0x3d6ffdc3	0.058591615
2	0xbfbda662	-1.4816401
3	0xbd36c770	-0.044623792
4	0x3e271577	0.16316782
5	0x3e32c31c	0.17457241
6	0x3deefe7d	0.116696335
7	0x3e7b224d	0.24524803
8	0xbd4c9f48	-0.04995659
9	0x3c831890	0.016002923
10	0xbd4f18d1	-0.050560776
11	0x3d187330	0.037219226
12	0xbbf567b0	-0.007489167
13	0x3dba6f32	0.0910324
14	0x3ca11ce8	0.019667104
15	0xbd9bc3ca	-0.07605703
16	0xbda498af	-0.080369346
17	0x3d2f02c4	0.042727247
18	0x3cdd9208	0.027047172
19	0x3d454c2c	0.048168346
20	0x3db34c32	0.087547675
21	0xbc398668	-0.011323549
22	0xbd8ca340	-0.06867075
23	0x3db7b89c	0.08970758
24	0x3ce64c0b	0.028112432
25	0xbe6909e5	-0.2275768
26	0x3c966658	0.018359348
27	0xbdb9abef	-0.09065997
28	0x3c941728	0.018077448
29	0x3db11704	0.08646968
30	0xbc6edbc8	-0.014578767
31	0xbd0ab693	-0.033865523
32	0x3d204c88	0.039135486
33	0xbd892c64	-0.0669792
34	0x3d33e5a0	0.04392016
35	0x3d86f136	0.06588976
36	0x3d44f544	0.048085466
37	0x3d1d90c4	0.038468137
38	0x3d8e0e74	0.069363505
39	0x3c8d0108	0.017212406
40	0xbd1af4cb	-0.03783111
41	0xbdb2b572	-0.08726014
42	0x3cd30108	0.025757328
43	0x3d9ef270	0.07761085
44	0x3da6d55a	0.08146162
45	0xbd7b5ec2	-0.061369665
46	0x3dab7eea	0.08373816
47	0xbd86409a	-0.065552905
48	0x3db9b538	0.09067768
49	0x3d6a2720	0.05716622
50	0x3c125b80	0.008932948
51	0xbdaaf43e	-0.08347367
52	0x3ccc0c68	0.02490826
53	0x3d5bc0e0	0.053650737
54	0xbd6d851c	-0.05798827
55	0x3cd64544	0.026156075
56	0x3c110188	0.008850463
57	0x3d118b54	0.035533264
58	0x3d9acb38	0.07558292
59	0xbd69b927	-0.05706134
60	0x3bd7ab70	0.0065817162
61	0x3c12f628	0.008969821
62	0xbd221978	-0.03957507
63	0x3c2ee360	0.010674328
64	0xbd4eb0bf	-0.050461527
65	0xbe194a27	-0.14969693
66	0xbcdf21c4	-0.02723778
67	0x3d8c225b	0.0684249
68	0x3ded45f8	0.11585611
69	0x3d2f5165	0.042802233
70	0x3d76fc66	0.0602993
71	0x3d9b55ef	0.0758475
72	0xbd89066e	-0.066906795
73	0xbd099747	-0.033591535
74	0x3e3516ae	0.17684433
75	0x3e456d6e	0.19280025
76	0x3dc6f8ed	0.097154476
77	0x3dfb07e8	0.12257367
78	0xbb888686	-0.004166427
79	0x3cc83733	0.024440384
80	0x3dcf9f79	0.10137839
81	0x3c9c5799	0.019084739
82	0xbd4962ba	-0.04916642
83	0x3e2d0500	0.16896439
84	0xbcdb072e	-0.026736822
85	0x3df27135	0.11837999
86	0x3dcc4ec4	0.09975961
87	0x3c1e4214	0.009659309
88	0x3d0d783a	0.034538485
89	0xbdbd18e0	-0.0923326
90	0xbd11941a	-0.03554163
91	0xbd84b905	-0.06480602
92	0xbe2ef2e1	-0.17084838
93	0xbe291da8	-0.16515219
94	0x3de3419d	0.11096499
95	0x3d72ae00	0.05924797
96	0xbdebc6b3	-0.11512508
97	0xbde2eea0	-0.1108067
98	0xbe267c79	-0.1625842
99	0xbc9139b1	-0.017727705
100	0x3d4356aa	0.04769007
101	0xbde55469	-0.111977406
102	0x3d73aacf	0.059489068
103	0xbc0ef709	-0.00872589
104	0x3d97f062	0.07418896
105	0x3cf46e68	0.029837802
106	0xbcca9b44	-0.02473224
107	0xbced2ae2	-0.028951112
108	0xbbd9dfe0	-0.0066490024
109	0xbd481d0f	-0.048855837
110	0xbc5900b8	-0.0132448
111	0x3d0964ca	0.033543386
112	0xbda740da	-0.08166666
113	0xbc3a6220	-0.011375934
114	0x39b92400	0.00035312772
115	0x3da4247c	0.08014771
116	0x3cb51ef8	0.022109494
117	0xba412f80	-0.0007369444
118	0x3d7c3804	0.06157686
119	0xbca9d4a4	-0.020731278
120	0xbf01cb99	-0.5070129
121	0xbee04f87	-0.43810675
122	0xbf1a4b6b	-0.6027133
123	0x3fcf3185	1.6186987
124	0xbe811040	-0.2520771
125	0x3f060a9b	0.5235993
126	0xbeaecb8d	-0.34139672
127	0x3ef0287e	0.46905893
128	0x3ccf24f0	0.025286168
129	0x3d801cf6	0.06255524
130	0x3d1ed750	0.038779557
131	0x3d826d0e	0.06368457
132	0x3d9e0934	0.07716599
133	0xbcfeaae4	-0.031087346
134	0x3c1f07f0	0.009706482
135	0xbd0bcd1b	-0.03413115
136	0xbd80958a	-0.06278522
137	0x3c6f38a0	0.014600903
138	0x3da14fc8	0.07876545
139	0x3db965f6	0.09052651
140	0x3da04c8e	0.07827102
141	0x3bb97000	0.0056591034
142	0xbda5dd3e	-0.08098839
143	0x3c07b588	0.0082830265
144	0x3c97eb03	0.01854468
145	0xbc316a58	-0.010828577
146	0x3df210f1	0.118196376
147	0x3d9dd5b8	0.07706779
148	0x3b8459f0	0.0040390417
149	0xbda723f3	-0.08161154
150	0x3db43150	0.08798468
151	0x3cc3a408	0.023881927
152	0x3d93808a	0.07202251
153	0xbcd15798	-0.025554463
154	0x3d4b65c4	0.0496576
155	0x3bc0aa70	0.0058796927
156	0x3cd35f98	0.025802419
157	0xbb752ac0	-0.0037409514
158	0xbc47bd68	-0.012191154
159	0x3d3de7d0	0.04636365
160	0xbd9d9e1c	-0.076961726
161	0x3d549224	0.051897183
162	0x3d438ca4	0.047741547
163	0xbd4306ae	-0.047613792
164	0x3d80b566	0.06284599
165	0xbadfc6c0	-0.0017072782
166	0x3cd1d394	0.025613584
167	0xbd88283a	-0.066482976
168	0x3cdb4350	0.026765496
169	0x3d8fcc64	0.07021406
170	0xbcd28d30	-0.02570209
171	0x3d5c079c	0.053718194
172	0xbd812ce6	-0.06307392
173	0x3daf67a2	0.08564688
174	0xbc900e9c	-0.017585091
175	0x3c8e96dc	0.01740592
176	0xbd8fd108	-0.070222914
177	0xbd076497	-0.033054914
178	0xbdb90c6a	-0.09035571
179	0x3d22e190	0.039765894
180	0xbd13fbb6	-0.036128722
181	0xbd57d738	-0.052695483
182	0x3c40cc40	0.011767447
183	0x3d9902dc	0.074712485
184	0x3ca533c1	0.02016628
185	0x3e1eb6b9	0.1549939
186	0xbcfd78d3	-0.030941403
187	0x3be90148	0.0071107484
188	0x3e1bd528	0.15218031
189	0xbd88a2e6	-0.066716954
190	0x3e408f78	0.18804729
191	0x3e005491	0.1253226
192	0x3dcf8442	0.10132648
193	0xbc912c3f	-0.017721293
194	0xbd60abc9	-0.054851327
195	0x3dca021f	0.09863686
196	0x3d4eef9c	0.050521478
197	0xbd8ec875	-0.06971828
198	0xbab6c9c2	-0.0013945627
199	0x3e1e7cb3	0.15477256
200	0x3e1f087f	0.15530585
201	0x3d17e616	0.03708466
202	0x3e1675e2	0.14693406
203	0x3e0c0d2b	0.13676898
204	0x3c5b5aca	0.013388345
205	0x3d75d0cc	0.060013577
206	0x3c1b8917	0.009493134
207	0x3d123e2c	0.035703823
208	0x3e3e705f	0.18597554
209	0x3e495b57	0.1966375
210	0x3d15c8f2	0.03656859
211	0x3dec2ce0	0.11531997
212	0x3e8352b9	0.2564905
213	0x3e382b3b	0.17985241
214	0x3d1e0efd	0.038588513
215	0x3e0518a8	0.12997687
216	0x3de8a3f5	0.11359397
217	0x3dbd8284	0.092534095
218	0xbd8e3172	-0.06943025
219	0xbe39fcc9	-0.18162836
220	0x3df5dcd1	0.12005008
221	0x3d9cf6f7	0.07664292
222	0xbd94a087	-0.07257181
223	0xbe4f8b21	-0.20267917
224	0xbd46df4d	-0.0485528
225	0xbd39a888	-0.04532674
226	0x3d88f0b8	0.066865385
227	0x3d8befda	0.068328574
228	0x3d46e52c	0.0485584
229	0x3a7eee00	0.0009724796
230	0x3d282968	0.041055113
231	0x3c7aefb0	0.015315935
232	0xbd0daf66	-0.0345911
233	0x3d6ef01c	0.058334455
234	0x3d546900	0.05185795
235	0xbda03036	-0.078216955
236	0x3c7adbe0	0.015311211
237	0x3d93d95a	0.07219191
238	0x3d76bd68	0.060239226
239	0xbbc4c840	-0.006005317
240	0xbebc1157	-0.3673198
241	0x3e71c8d2	0.23611763
242	0x3f7c10cd	0.98463136
243	0xbf273432	-0.6531402
244	0x3e2a9577	0.16658579
245	0x3d9243a7	0.0714181
246	0xbdc73fb0	-0.09728944
247	0xbcafbf48	-0.021453515
248	0x3d3398a0	0.043846726
249	0x3d0f12f0	0.03493017
250	0xbd55c0ad	-0.052185703
251	0x3ca82c2c	0.020528875
252	0x3d0ec7e8	0.034858614
253	0x3d7c8b50	0.061656296
254	0xbdabf065	-0.08395461
255	0xbd957a97	-0.07298773

net.0.bias f4 [128]
0	0x3ede9e75	0.43480268
1	0x3c3efc04	0.011656765
2	0xbe3b5db8	-0.1829747
3	0x3f1b2c1c	0.6061418
4	0x3f113fe4	0.56738114
5	0xbeba1170	-0.3634143
6	0xbd939149	-0.07205445
7	0xbdfcdd4f	-0.12346899
8	0x3f080759	0.5313621
9	0xbe6910d7	-0.2276033
10	0xbdc98e09	-0.09841544
11	0xbd195eab	-0.037443798
12	0x3e580166	0.21094283
13	0x3f08dc56	0.53461206
14	0x3f07d8dd	0.5306528
15	0xbe3c3155	-0.18378194
16	0x3f2e580f	0.68103117
17	0xbe83bf1b	-0.2573174
18	0xbe8c5761	-0.27410415
19	0x3f127dc5	0.5722316
20	0xbe68fa0a	-0.22751632
21	0xbd72cc1e	-0.059276693
22	0x3edea917	0.4348838
23	0xbe0b26c1	-0.13589002
24	0xbe03586f	-0.12826703
25	0xbeb1891b	-0.34674916
26	0x3e18e4f2	0.14931086
27	0x3e9d8473	0.30765113
28	0xbea575e2	-0.323165
29	0x3ee87e5b	0.45408902
30	0x3f3410a3	0.70337886
31	0xbe35aa8b	-0.17740838
32	0x3d56fcec	0.0524873
33	0x3e25d58b	0.16194741
34	0x3eb41e64	0.35179436
35	0x3f478f79	0.77953297
36	0x3dd99791	0.10624612
37	0x3ed47fd6	0.4150378
38	0x3f0d1b08	0.5511937
39	0x3ebe38de	0.3715276
40	0x3ef9ab3a	0.48763448
41	0x3e82293e	0.2542209
42	0xbd9e41b1	-0.077273734
43	0x3de062d4	0.1095635
44	0x3eb0ccd6	0.34531277
45	0x3e741315	0.23835404
46	0x3f126e42	0.5719949
47	0x3f1a91b1	0.6037856
48	0xbe39d1c6	-0.18146428
49	0xbe6388f5	-0.22220214
50	0x3e847842	0.25873
51	0x3ef92cb7	0.48666927
52	0x3e8c254c	0.27372205
53	0xbe13b89a	-0.14425889
54	0x3ee3592b	0.44403967
55	0x3ef35f75	0.47533765
56	0x3f07068b	0.5274436
57	0x3f38899f	0.72084993
58	0x3ede415d	0.43409243
59	0x3efd7518	0.49503398
60	0x3e8b1e15	0.27171388
61	0x3f1fb1b8	0.6238055
62	0x3e113655	0.14180882
63	0xbda91627	-0.08256178
64	0x3e5bd9d4	0.21469814
65	0xbdf49685	-0.11942772
66	0xbdad7671	-0.084698565
67	0xbbe14432	-0.0068745846
68	0x3effa609	0.49931362
69	0x3f039d96	0.5141233
70	0x3cd93740	0.026515603
71	0xbee58ced	-0.4483408
72	0xbe7a4e89	-0.24444021
73	0xbe564726	-0.20925578
74	0xbe46da05	-0.19419105
75	0xbd85d5d3	-0.06534924
76	0x3d9cf527	0.076639466
77	0x3f07aa22	0.5299398
78	0xbdf7c420	-0.12097955
79	0xbed3de89	-0.41380718
80	0x3d90bfc1	0.07067824
81	0x3f16f7a1	0.589716
82	0xbe79fde5	-0.2441326
83	0xbeab06f7	-0.3340375
84	0x3ee1b58b	0.4408382
85	0x3e216043	0.15759377
86	0x3f56d59e	0.83919704
87	0x3eb50872	0.35358006
88	0x3ea284c3	0.31741914
89	0xbcd56183	-0.026047474
90	0xbe42c7d0	-0.19021535
91	0xbd80cf73	-0.06289568
92	0xbd727b4b	-0.059199613
93	0x3e10665b	0.14101546
94	0xbeb156a3	-0.3463641
95	0x3f3a2f41	0.72728354
96	0x3e6bb12b	0.23016803
97	0x3e502cc7	0.20329581
98	0x3d87b79c	0.066268176
99	0xbec368d4	-0.38165915
100	0x3eb97a0a	0.3622592
101	0x3f0d949a	0.55304873
102	0x3f27daa8	0.6556802
103	0x3f2302d8	0.63676214
104	0xbe388daa	-0.1802279
105	0xbece3dee	-0.40281624
106	0x3eeb3c36	0.45944375
107	0x3f29e894	0.6637051
108	0x3f119740	0.56871414
109	0xbe6a5b7b	-0.2288646
110	0x3f1063b1	0.56402117
111	0x3d10a45b	0.03531299
112	0xbd3ff250	-0.046861947
113	0x3e8c38ea	0.27387172
114	0x3f243a87	0.64151806
115	0xbd4628c5	-0.048378725
116	0x3eff5caf	0.498754
117	0x3ba25262	0.0049536685
118	0xbd73215e	-0.059357993
119	0xbddebd30	-0.108759284
120	0x3edf4633	0.43608245
121	0xbe80851d	-0.25101557
122	0xbf02e0f2	-0.5112449
123	0xbe26b7b1	-0.1628101
124	0xbd8e8b7d	-0.06960199
125	0xbea61856	-0.32440442
126	0xbde13e35	-0.10998193
127	0x3daf3f20	0.08556962

net.2.weight f4 [128, 128]
0	0xbd02549f	-0.031818982
1	0x3ca32d74	0.019919135
2	0x3d5949dd	0.053048957
3	0x3cca0de0	0.02466482
4	0xbd47b387	-0.048755195
5	0x3babe842	0.005246193
6	0x3cfbda64	0.030743785
7	0xbd7c2cb7	-0.06156608
8	0xbb4ac493	-0.0030939921
9	0xbd62c634	-0.055364802
10	0xbd3c2119	-0.045930002
11	0x3d823bf9	0.06359095
12	0xbc5c852c	-0.013459485
13	0xbd8c6b88	-0.068564475
14	0xbd427e9d	-0.04748403
15	0x3d9ef9fd	0.07762525
16	0x3bfe40cc	0.0077591892
17	0xbd85529d	-0.06509898
18	0x3d127538	0.03575632
19	0xbd80bbd1	-0.06285823
20	0xbd6b50c3	-0.057450067
21	0xbd121fc5	-0.03567483
22	0x3d9deb76	0.07710926
23	0xbccdde09	-0.025130289
24	0x3d9cc5dd	0.07654927
25	0xbcb20b86	-0.02173401
26	0xbce2351c	-0.027613215
27	0xbda8077f	-0.08204555
28	0x3ce35d0d	0.027754331
29	0x3c960c9e	0.018316563
30	0xbd26495a	-0.040597297
31	0x3bbb39a4	0.0057136584
32	0x3b89770e	0.0041951006
33	0xbccf5434	-0.025308706
34	0x3a7bb455	0.00096017617
35	0xbd955a7d	-0.0729265
36	0xbca01ad8	-0.01954405
37	0xbd3d46df	-0.046210166
38	0x3c3e478f	0.011613741
39	0xbd44c75c	-0.048041686
40	0x3d140f28	0.036147267
41	0xbc718ad6	-0.014742574
42	0x3d2340fe	0.039856903
43	0xbd178c42	-0.036998995
44	0xbd28ddc4	-0.041227117
45	0x3d22aa5b	0.039713245
46	0xbd1aacf0	-0.037762582
47	0x3bfef30a	0.0077804374
48	0xbd9d6e6e	-0.076870784
49	0xbda55236	-0.08072321
50	0x3ca894ec	0.020578824
51	0xbd8d66ff	-0.069044106
52	0xbd6abc4c	-0.05730848
53	0x3da7348a	0.08164318
54	0x3d068bc0	0.03284812
55	0x3d1346c8	0.035956174
56	0xbd9938c8	-0.07481533
57	0x3c01d87a	0.007925147
58	0xbd68af89	-0.05680803
59	0xbd970545	-0.07374052
60	0xbc763580	-0.015027404
61	0xbda29b6e	-0.07939802
62	0x3cc0666c	0.023486339
63	0xbd06eda0	-0.03294146
64	0xbd3c8623	-0.04602636
65	0x3c4a30b0	0.01234071
66	0xbbf77f10	-0.007552989
67	0x3d8c7889	0.06858928
68	0x3d2366ee	0.039893083
69	0xbdb55e31	-0.08855856
70	0xbcde8f7c	-0.027168028
71	0xbc08c78f	-0.00834836
72	0xbd27ec0f	-0.040996607
73	0xbda0190a	-0.07817276
74	0x3c4babd7	0.0124311065
75	0x3ceeb37b	0.029138317
76	0x3d5432a4	0.051806107
77	0x3c009f96	0.007850548
78	0x3da4d54b	0.08048495
79	0x3b3aec93	0.0028522357
80	0x3b1fef20	0.0024404004
81	0xbd770104	-0.060303703
82	0xbd44df52	-0.048064537
83	0xbdac30af	-0.08407723
84	0x3d801c29	0.06255371
85	0x3d083082	0.033249386
86	0x3d5ddef5	0.054167707
87	0x3cddd339	0.027078258
88	0x3d3027de	0.04300677
89	0x3a438f00	0.00074599683
90	0xbd8afa9b	-0.067860804
91	0xbd8fe1ba	-0.07025476
92	0xbcffadd2	-0.031210814
93	0xbc6d521f	-0.014484911
94	0xbcca9b34	-0.02473221
95	0xbd7fcf97	-0.062453832
96	0xbc2edd58	-0.01067289
97	0x3d92f976	0.07176487
98	0xbd91c2ce	-0.07117234
99	0x3ca0846c	0.019594394
100	0xbc9f2d79	-0.019430863
101	0xbda46c33	-0.0802845
102	0x3d2d57d5	0.04232009
103	0xbb643f95	-0.0034827937
104	0x3ba7ed89	0.005124752
105	0xbd319b39	-0.043360922
106	0x3d41a906	0.047280334
107	0xbc5f13f0	-0.013615593
108	0xbc9691ec	-0.018380128
109	0xbcab34b0	-0.020899147
110	0x3cc47bdf	0.023984848
111	0x3d1f5f56	0.03890928
112	0xbc4855a0	-0.012227446
113	0x3d1ffcde	0.039059512
114	0xbd0625d0	-0.032750905
115	0xbcb6b574	-0.02230332
116	0x3d3c60fd	0.045990933
117	0x3da2c25d	0.07947228
118	0x3d897e75	0.06713573
119	0x3d19c9f2	0.037546106
120	0xbd272f2d	-0.040816475
121	0x3d8399dc	0.06425831
122	0xbd9e6c68	-0.077355206
123	0x3d0d5380	0.03450346
124	0xbc0e8f52	-0.008701162
125	0x3ccd9658	0.025096104
126	0xbd7e3fda	-0.062072612
127	0xbd27c670	-0.04096073
128	0x3e755e75	0.23961814
129	0xbe95433c	-0.29152858
130	0x3e963214	0.29335082
131	0xbfa735c1	-1.3063279
132	0x3eb4d73d	0.35320464
133	0x3d0c524c	0.034258172
134	0xbe990527	-0.29886743
135	0xbf8fa9cc	-1.1223693
136	0xbec5bead	-0.38622037
137	0xbce03a86	-0.027371656
138	0x3c501b08	0.012701757
139	0x3d72736e	0.059192114
140	0xbd1412b5	-0.036150653
141	0xbed53c28	-0.41647458
142	0xbed03ef0	-0.40673018
143	0x3d8fad2a	0.0701545
144	0x3e03f32f	0.12885736
145	0x3c46c2bf	0.012131392
146	0xbef77750	-0.48333216
147	0x3d99855b	0.07496139
148	0x3d0b3c89	0.033993278
149	0x3e8589f8	0.26081824
150	0xbf2c5ceb	-0.6732928
151	0xbdc89fde	-0.09796117
152	0x3e310b4c	0.17289466
153	0x3dc6b82d	0.097030975
154	0xbf9131b0	-1.1343288
155	0xbe14e57c	-0.14540666
156	0x3e057f56	0.13036856
157	0xbd603301	-0.05473614
158	0x3ec96acc	0.39339292
159	0x3dae5aa0	0.08513379
160	0xbdda3eb8	-0.10656494
161	0xbef5fb08	-0.48043084
162	0xbdd774f9	-0.10520358
163	0x3e8571f7	0.2606351
164	0x3ee5f61e	0.44914335
165	0x3e5d4ee5	0.21612127
166	0x3e88d9ab	0.26728567
167	0x3e2037ad	0.15646239
168	0xbfc45ae1	-1.5340234
169	0xbf11e67f	-0.56992334
170	0x3bf98f30	0.0076159462
171	0xbcabed32	-0.020987127
172	0xbe9f7002	-0.31140143
173	0xbe051cf6	-0.12999329
174	0xbe7e72a7	-0.24848424
175	0x3d92991f	0.07158112
176	0x3d700d48	0.058606416
177	0x3e25c4cc	0.16188353
178	0x3da27102	0.07931711
179	0x3ce8945b	0.028391054
180	0xc011e183	-2.2793891
181	0xbcf3fc12	-0.029783282
182	0x3df8a618	0.12141055
183	0x3e141164	0.14459759
184	0x3e17e7aa	0.14834467
185	0x3e10d98d	0.14145489
186	0x3dd3765e	0.10325311
187	0xbe62980a	-0.22128311
188	0xbe9aa732	-0.30205685
189	0xbd7df2dd	-0.06199919
190	0x3f2878f7	0.6580958
191	0x3d80b985	0.06285385
192	0xbde7f98c	-0.11326894
193	0x3e07b045	0.13250835
194	0xbc424a80	-0.0118585825
195	0x3d6b1400	0.05739212
196	0xbef6fdbf	-0.48240468
197	0xbe8bd3fe	-0.27310175
198	0xbd48d7a6	-0.049033783
199	0x3e184a3b	0.14872067
200	0xbe5cc219	-0.21558417
201	0x3d86c51a	0.06580563
202	0x3d08232a	0.03323666
203	0x3d8ee25e	0.0697677
204	0xbf4f6ea9	-0.8102823
205	0xbdd98d91	-0.10622705
206	0x3d61f1b5	0.05516215
207	0x3e2cf01c	0.1688847
208	0xbf3f0bf8	-0.7462764
209	0x3e4333c0	0.1906271
210	0xbc4acb82	-0.012377622
211	0x3e16cafc	0.1472587
212	0x3ddeae2d	0.10873065
213	0x3f1460a3	0.57959956
214	0x3ea5ec7b	0.32406983
215	0x3c04e361	0.008110852
216	0xbf5b78a7	-0.85730976
217	0xbc5ff81f	-0.0136699965
218	0xbef2b67f	-0.47404858
219	0x3e008169	0.12549366
220	0x3d9d3858	0.07676762
221	0xbde7065b	-0.11280509
222	0x3df48f8b	0.11941441
223	0xbc98b812	-0.018642459
224	0xbf6b7d16	-0.9198774
225	0x3e58226d	0.21106882
226	0x3dd13cb5	0.10216657
227	0xc002a6e2	-2.0414357
228	0x3e81ee29	0.25377014
229	0x3e27c82c	0.16384953
230	0x3e38b514	0.18037826
231	0xbd13bc92	-0.036068507
232	0x3e00dc02	0.12583926
233	0x3d80a27e	0.06280993
234	0xbe854a9a	-0.2603348
235	0x3efbde54	0.4919306
236	0xbd5d8cbf	-0.054089304
237	0x3db45e46	0.08807044
238	0x3e815049	0.25256565
239	0x3e189841	0.1490183
240	0x3d9b9e0f	0.07598507
241	0xbdf4132e	-0.11917721
242	0x3ee1de45	0.4411489
243	0xbd406f89	-0.04698137
244	0x3e1a3635	0.15059741
245	0x3ea852cb	0.32875666
246	0xbdc6fb3c	-0.09715888
247	0x3e7e46de	0.24831721
248	0x3e742f88	0.23846257
249	0xbcd1c1d8	-0.025605127
250	0xbe2d1535	-0.16902621
251	0x3d376a09	0.044778857
252	0x3e28720d	0.16449757
253	0x3ddb88a5	0.10719422
254	0x3e1c9f8a	0.15295234
255	0xbf438521	-0.76375014

net.2.bias f4 [128]
0	0xbcc6bcdd	-0.024259979
1	0x3e3934b6	0.18086514
2	0xbd94bbaa	-0.072623566
3	0xbda3f62a	-0.080059364
4	0x3e028a32	0.1274803
5	0xbe525385	-0.20539673
6	0x3df4915c	0.119417876
7	0xbc82b7e3	-0.015956825
8	0xbd54d210	-0.051958144
9	0x3d8d2bfc	0.06893155
10	0xbe033bbd	-0.12815757
11	0x3ed520ae	0.41626495
12	0xbcaa06ae	-0.020755138
13	0x3e09d0f6	0.13458619
14	0xbd7c453e	-0.061589472
15	0xbd94f5ee	-0.0727347
16	0x3cde6c3e	0.027151223
17	0xbdfd8f9b	-0.12380906
18	0xbdb1ffd1	-0.08691371
19	0x3f0c6ff9	0.54858357
20	0x3ea5d629	0.32389954
21	0x3e8b0163	0.27149495
22	0x3e6d0224	0.23145348
23	0xbd44021f	-0.047853585
24	0xbdacbd57	-0.08434551
25	0x3da8d732	0.0824417
26	0x3ec80eb4	0.39073718
27	0x3f0dccf6	0.5539087
28	0x3cae7d47	0.021299971
29	0xbc9546fc	-0.018222325
30	0x3f021a28	0.5082116
31	0xbca0ea53	-0.019642984
32	0x3e80fc08	0.25192285
33	0x3f03f5f3	0.51547164
34	0x3e865cdd	0.26242724
35	0x3e98954a	0.298014
36	0x3f10c285	0.56546813
37	0xbd6f224c	-0.058382317
38	0xbea29b31	-0.31759027
39	0xbe4ef3c3	-0.20210175
40	0x3f0bfabe	0.5467948
41	0xbc93c3c6	-0.018037688
42	0xbd1feda2	-0.039044984
43	0xbe085447	-0.133134
44	0xbd46412a	-0.04840199
45	0x3ef5fb7e	0.48043436
46	0x3e898e49	0.26866367
47	0xbd4c46ea	-0.049872316
48	0x3e91577c	0.28387058
49	0x3ee0473f	0.43804356
50	0xbebff5d3	-0.37492236
51	0x3ebcab04	0.36849225
52	0x3c424f9b	0.0118598
53	0x3e53b5ae	0.20674774
54	0xbdebaf3e	-0.11508034
55	0x3edad391	0.42739537
56	0x3f144c36	0.5792879
57	0x3e992281	0.29909137
58	0x3eb1aab2	0.34700543
59	0xbd3305d4	-0.04370673
60	0x3f12fb5b	0.5741479
61	0x3eef6326	0.46755332
62	0x3eab58c0	0.33466148
63	0x3eea0e10	0.45713854
64	0x3c6868aa	0.01418511
65	0x3d915db0	0.070979476
66	0x3ea66947	0.32502195
67	0xbd75d0a3	-0.060013425
68	0x3eefecbd	0.46860304
69	0xbd923c9d	-0.07140467
70	0x3eb44a18	0.3521278
71	0x3d9f1153	0.07766976
72	0x3e0cd722	0.13753942
73	0xbb978279	-0.004623708
74	0x3f24e500	0.64411926
75	0x3ea2f7a1	0.3182955
76	0x3efb41b5	0.49073568
77	0x3d6835e0	0.056692004
78	0xbd67372d	-0.056449104
79	0x3edb370a	0.4281543
80	0x3eecbf04	0.46239483
81	0x3e95b3c4	0.29238713
82	0x3cacef43	0.021110183
83	0x3e868e6b	0.2628053
84	0xbd951659	-0.07279653
85	0x3e9ef937	0.3104951
86	0x3ebd3ce6	0.36960524
87	0x3e9248e7	0.28571245
88	0xbdf9be7b	-0.121945344
89	0xbd7698ac	-0.060204193
90	0xbd5e7fb1	-0.054320995
91	0xbd522ff6	-0.05131527
92	0x3ed570f9	0.41687754
93	0xbd9b5eaa	-0.07586415
94	0x3ed76bb1	0.4207435
95	0x3f031b37	0.512134
96	0x3e8166ce	0.25273746
97	0x3e9de60b	0.3083957
98	0xbd852906	-0.06501965
99	0x3e98ea8f	0.29866454
100	0x3eda78a9	0.4267018
101	0x3e8751af	0.26429507
102	0xbe16a5e3	-0.14711718
103	0x3c272461	0.0102015445
104	0x3eb29c97	0.34885094
105	0xbc048295	-0.008087774
106	0xbd88987d	-0.0666971
107	0x3dd45228	0.103672326
108	0xbd8f4056	-0.06994693
109	0xbec5d3aa	-0.3863805
110	0xbe84b615	-0.25920168
111	0x3e9e939b	0.3097199
112	0x3ec950c1	0.39319423
113	0x3d907acd	0.070546724
114	0xbebfc1d9	-0.37452582
115	0x3eb30a60	0.34968853
116	0x3d52df46	0.05148246
117	0x3e9bd743	0.3043767
118	0xbc2f846c	-0.010712724
119	0x3d41c81e	0.047309987
120	0x3e22e30c	0.15906924
121	0xbd161fe8	-0.036651522
122	0x3e959a4e	0.29219288
123	0x3e70a95d	0.23502107
124	0x3f0557c6	0.52087057
125	0x3a122939	0.00055756007
126	0x3eec5a8b	0.4616283
127	0x3e6632aa	0.22480264

net.4.weight f4 [18, 128]
0	0xbc41a3c0	-0.011818826
1	0x3de60046	0.11230521
2	0xbf5a596f	-0.85292715
3	0xbe2ec8ad	-0.17068739
4	0xbde382da	-0.11108942
5	0xbf084b7e	-0.5324019
6	0xbe882a4f	-0.2659478
7	0xbea3b3cf	-0.3197312
8	0xbc878e68	-0.016547397
9	0xbd85528d	-0.06509886
10	0xbea27774	-0.3173176
11	0xbec55e7e	-0.38548654
12	0x3d13d954	0.036095932
13	0xbdfce9ad	-0.123492576
14	0xbe9db089	-0.30798748
15	0x3cd72a7b	0.026265373
16	0x3ab61f24	0.0013894779
17	0xbedb16ee	-0.4279093
18	0xbb117ac0	-0.002219841
19	0xbe7f9acb	-0.24961393
20	0xbe5b3260	-0.21405935
21	0x3e8d1977	0.2755849
22	0xbe51d8a2	-0.20492795
23	0xbd9c7534	-0.07639542
24	0x3cb88988	0.022526518
25	0xbdb32361	-0.08746982
26	0xbe9b04bb	-0.30277047
27	0xbe635452	-0.22200134
28	0xbd75c84c	-0.06000547
29	0xbe1a5302	-0.15070727
30	0xbec69e3d	-0.387926
31	0xbd963c97	-0.07335775
32	0x3e564940	0.2092638
33	0xbe3cf617	-0.18453251
34	0x3e40c0b3	0.18823509
35	0x3e829845	0.25506797
36	0xbf50e47e	-0.8159865
37	0x3d0486b8	0.03235504
38	0xbe933dbe	-0.28758043
39	0xbe85bafa	-0.26119214
40	0xbe2444af	-0.16041826
41	0x3d98f65d	0.07468865
42	0x3d98f148	0.07467896
43	0xbf40f974	-0.75380635
44	0xbc9e2c06	-0.019308101
45	0xbe4b2f6a	-0.19842306
46	0x3e78c5f6	0.24294266
47	0xbe0e11f1	-0.13874032
48	0x3e683ecf	0.2268021
49	0xbed06e96	-0.4070937
50	0xbf70979d	-0.93981344
51	0xbe8624cd	-0.26199952
52	0xbdfc85a1	-0.12330175
53	0x3e3e08da	0.18558064
54	0xbdedc031	-0.11608923
55	0xbe8ab1ee	-0.27088875
56	0xbe9f1636	-0.31071633
57	0x3e23cc20	0.15995836
58	0x3ea2d3be	0.3180217
59	0x3e04437d	0.1291637
60	0xbeb44fc9	-0.3521712
61	0xbe8530c5	-0.2601377
62	0xbf14fec2	-0.5820123
63	0xbe5d9151	-0.21637465
64	0xbd7b4d8c	-0.06135325
65	0xbe5aaa9e	-0.21354148
66	0xbe1c8366	-0.152845
67	0xbdcb779c	-0.09934923
68	0xbf30ca37	-0.69058555
69	0xbc70fc48	-0.014708586
70	0xbeb4b24b	-0.35292277
71	0xbd72369e	-0.05913412
72	0xbd85fa8e	-0.0654193
73	0xbef5706e	-0.4793734
74	0xbf3ed808	-0.7454839
75	0x3e88b993	0.26704082
76	0xbf0e85f8	-0.5567317
77	0xbd6b7f38	-0.057494372
78	0x3d859cb5	0.0652403
79	0x3e8a3c00	0.269989
80	0xbea6250d	-0.32450143
81	0xbe9e36e4	-0.30901253
82	0xbdf1ed1a	-0.11812802
83	0x3e1e0d10	0.1543467
84	0xbcb3736b	-0.021905622
85	0x3e79293f	0.2433214
86	0x3e3e2a32	0.18570784
87	0x3e4bb7b2	0.19894293
88	0xbdab8040	-0.08374071
89	0xbcf9fa00	-0.030514717
90	0x3877843a	5.9012535e-05
91	0xbd8ccc2c	-0.0687488
92	0xbe8f39f0	-0.2797389
93	0x3e56db40	0.20982075
94	0xbe880db0	-0.26572943
95	0xbea1e15b	-0.31617245
96	0x3e1df511	0.15425517
97	0x3e8d341f	0.27578828
98	0x3d465e96	0.048430048
99	0xbf0d8640	-0.55282974
100	0x3e4e8938	0.20169532
101	0xbec8dfa4	-0.39233124
102	0xbf4ae2b2	-0.7925216
103	0xbd4d6996	-0.050149523
104	0xbea456d2	-0.3209749
105	0xbdcf8b84	-0.10134032
106	0x3dd2f10c	0.10299882
107	0xbe8da85d	-0.27667513
108	0x3d9234fa	0.07139011
109	0xbe993205	-0.29920974
110	0xbeaf7566	-0.34269255
111	0xbe50a382	-0.20374873
112	0x3e0056dc	0.12533134
113	0xbdbf90ef	-0.09353816
114	0xbed247cc	-0.41070402
115	0x3e5b4ac6	0.21415243
116	0xbdd8c9b3	-0.10585346
117	0x3e469e8d	0.1939642
118	0xbb82635e	-0.0039791306
119	0xbecb1258	-0.39662433
120	0x3e07e1fd	0.13269801
121	0xbe0eba3b	-0.13938229
122	0xbed8f675	-0.42375532
123	0x3e59d4ba	0.21272555
124	0xbdd0506d	-0.1017159
125	0xbe1cb38c	-0.15302867
126	0xbea3112f	-0.31849048
127	0x3e889490	0.26675844
128	0xbd55b447	-0.05217388
129	0x3e1e05af	0.15431856
130	0xbf7063e5	-0.93902427
131	0xbe34e990	-0.17667222
132	0xbde6d1b1	-0.11270464
133	0xbf053bd4	-0.52044415
134	0xbe755f44	-0.23962122
135	0xbe704f2e	-0.23467705
136	0x3d51e8d6	0.05124744
137	0xbd7826d8	-0.06058392
138	0xbec4b227	-0.3841717
139	0xbeabc4a3	-0.3354846
140	0x3c42643a	0.011864716
141	0xbe0e56a2	-0.13900235
142	0xbeaa0168	-0.33204198
143	0xbd03ccac	-0.032177612
144	0x39b5a6be	0.00034647243
145	0xbed602d1	-0.41799024
146	0xbac990c0	-0.0015378222
147	0xbec36ac7	-0.38167402
148	0xbe528107	-0.20557033
149	0x3e2f8020	0.1713872
150	0xbe7f27a6	-0.24917468
151	0xbcb11bf8	-0.021619782
152	0x3cd79bcf	0.026319413
153	0xbdf011a6	-0.11722116
154	0xbe7e5e60	-0.24840689
155	0xbe98a5f2	-0.29814106
156	0xbe0e5c56	-0.13902411
157	0xbdf9a4fb	-0.12189671
158	0xbe96b2de	-0.2943334
159	0x3cad9665	0.021189878
160	0x3e9a32db	0.30116925
161	0xbe8f08a1	-0.2793627
162	0x3df0100e	0.11721812
163	0x3e8fa517	0.2805564
164	0xbf47529b	-0.7786042
165	0xbc101f40	-0.008796513
166	0xbe99b228	-0.30018735
167	0xbe9d6fa6	-0.30749243
168	0xbe4e806d	-0.20166178
169	0xbd358c56	-0.044323288
170	0x3d561dcf	0.05227452
171	0xbf422461	-0.7583676
172	0xbe0f354c	-0.13985175
173	0xbe96a845	-0.29425254
174	0x3e9adca2	0.30246454
175	0xbea1c8a3	-0.31598386
176	0x3e5d45dd	0.21608682
177	0xbe58a227	-0.21155606
178	0xbf786c2d	-0.97040063
179	0xbe72160b	-0.23641221
180	0xbdb316c8	-0.087445796
181	0x3e26a572	0.1627405
182	0xbe6068cf	-0.21914981
183	0xbeacbbcd	-0.3373703
184	0xbe91b2a3	-0.28456602
185	0x3de32c9b	0.11092492
186	0x3e4d6c82	0.20060924
187	0x3e1b496b	0.15164725
188	0xbea7673c	-0.3269595
189	0xbe564188	-0.20923436
190	0xbf0d971f	-0.5530872
191	0xbec090f8	-0.37610602
192	0xbe7e3a93	-0.24827032
193	0xbe6df8cc	-0.2323944
194	0xbe91bad0	-0.2846284
195	0xbdb0c482	-0.08631231
196	0xbf3407d6	-0.70324457
197	0x3c3d19d8	0.011541806
198	0xbea0003b	-0.31250176
199	0x3d8b6999	0.068072505
200	0xbda3aa3f	-0.07991456
201	0xbebac7a7	-0.36480448
202	0xbf4247ef	-0.7589101
203	0x3e5b7f93	0.21435384
204	0xbf1bfab1	-0.609294
205	0xbd804181	-0.06262494
206	0x3cb0ac19	0.021566438
207	0x3e743854	0.23849612
208	0xbeae53d9	-0.34048346
209	0xbe1f2a3d	-0.15543456
210	0xbdb050c6	-0.08609156
211	0x3e4624f9	0.19350041
212	0x3cb764fc	0.02238702
213	0x3e659734	0.2242096
214	0x3e2b7a48	0.16745865
215	0x3e7fab85	0.24967773
216	0xbe15a0bd	-0.14612098
217	0xbd67541a	-0.05647669
218	0x3cc6a65d	0.02424925
219	0xbd50508e	-0.050858073
220	0xbe60bc5b	-0.21946852
221	0x3e5eaabf	0.21744822
222	0xbe613b27	-0.21995221
223	0xbe84c35d	-0.259303
224	0x3e5c397e	0.21506307
225	0x3e6b600d	0.22985859
226	0x3cbccaba	0.023045886
227	0xbf14f29f	-0.5818271
228	0x3e47801a	0.1948246
229	0xbe9acefa	-0.30236036
230	0xbf452675	-0.77011806
231	0x3d819caf	0.06328713
232	0xbe995aaf	-0.29952
233	0xbda27e77	-0.079342775
234	0x3cac0d63	0.021002477
235	0xbe5649da	-0.2092661
236	0xbc07c41c	-0.008286502
237	0xbe8575c8	-0.26066422
238	0xbe9d3a22	-0.30708414
239	0xbe8785de	-0.2646932
240	0x3e426b6b	0.18986289
241	0xbe0c8085	-0.13720901
242	0xbeb74da0	-0.3580141
243	0x3e953407	0.29141256
244	0xbd541920	-0.051781774
245	0x3e47252b	0.19447772
246	0xbdb0b74d	-0.08628712
247	0xbf0713db	-0.5276467
248	0x3e18082e	0.1484687
249	0xbd9f3983	-0.07774641
250	0xbef0d04b	-0.47033915
251	0x3e190173	0.14941959
252	0xbe3c8d85	-0.1841336
253	0xbe339bab	-0.17539851
254	0xbeb10ddc	-0.34580886
255	0x3e9f9230	0.3116622

net.4.bias f4 [18]
0	0xbdae993a	-0.085253194
1	0xbdf4f23b	-0.11960264
2	0xbdab04a2	-0.08350493
3	0xbd989dea	-0.07451995
4	0x3c926410	0.01786998
5	0xbda87c32	-0.082268134
6	0xbd53c2f9	-0.051699612
7	0xbd8008e8	-0.06251699
8	0xbd3925ab	-0.04520194
9	0xbd37d814	-0.044883803
10	0xbd38b9f6	-0.04509922
11	0xbd7f7e8d	-0.062376548
12	0xbe16bb9e	-0.14720008
13	0xbe0753e9	-0.13215603
14	0x3ba6b34c	0.005087292
15	0xbc8f4ec9	-0.017493622
16	0x3d4859ee	0.04891389
17	0xbd343b78	-0.044002026
