save_model/model_3500000(V2).pth (torch, 140445 bytes, 6 tensors)

net.0.weight f4 [128, 120]
0.14572886 0.21768379 1.2661607 0.014902451 -0.0011885638 0.06395698 0.04428854 -0.029297182
-0.044454843 -0.037225902 -0.07670225 -0.10898905 -0.015391916 -0.08483026 -0.028032683 0.012186237
0.043937907 -0.037743673 0.060305983 0.04303123 -0.0006872341 -0.047191974 -0.07312694 0.031098835
0.0023966432 0.0058052987 0.008716762 0.076556325 0.07883941 0.02166082 0.06466049 -0.044345085
0.012153655 0.016223982 -0.066968575 -0.028854076 -0.030641455 -0.027501494 0.0650765 0.04622297
0.07051906 -0.04681636 -0.072336905 0.07438555 -0.05274355 -0.035067514 -0.026109233 0.08994892
0.035601154 -0.055611607 0.070924744 0.0020385757 -0.064495295 -0.0034987032 0.012437455 0.036412805
0.083603784 -0.05901154 -0.023668252 -0.012514427 -0.066929474 0.08315092 -0.036104813 -0.056843687
-0.024021493 0.12984084 0.03591085 0.016699119 0.034572672 0.0018587066 -0.04175721 0.007456678
-0.0683471 0.055482917 0.013375935 0.09658085 -0.041078124 -0.022706045 -0.017452635 0.0030577192
-0.03242758 -0.016889194 0.0073490846 0.036441803 -0.0999679 -0.01637302 0.08680484 0.024356455
-0.040512096 0.066192634 -0.058803726 0.07186332 -0.03056746 -0.070036724 0.039830197 0.05900929
-0.024244888 0.053844612 -0.064910196 0.108471 -0.022187144 0.15347697 0.0006044177 0.07690235
-0.18632753 -0.18260187 0.15477167 0.031044165 0.011745453 -0.02140912 0.090360984 -0.0015322044
0.0723308 0.057174176 0.06256755 -0.065992616 -0.057302374 0.08061594 -0.03161494 -0.048124988
0.1982099 -0.09608897 -2.021928 0.41101572 -0.07402843 -0.14825313 0.023406455 0.006991951
0.073493935 -0.14227094 -0.015011467 0.060054123 0.0533354 -0.03628362 0.057131365 0.072610304
0.07053095 0.020351708 -0.07361783 0.032110363 0.035221085 -0.03396467 -0.019447505 0.014101192
-0.032466326 -0.055719797 0.017211124 0.05098498 -0.010447226 -0.050795984 0.08809538 -0.02863308
0.059345275 -0.06617473 -0.027026765 -0.041653648 0.0907502 0.07330549 -0.053028516 0.043921888
-0.057402946 0.08568896 0.07091552 -0.0070525184 0.0319535 -0.088626765 -0.019549213 0.0394125
-0.042502467 -0.08058966 0.03494069 0.04766518 0.025063224 -0.034652833 -0.058706958 0.048667163
0.05383399 0.042424217 -0.05080837 -0.0819283 0.019093484 0.03246604 -0.03994459 -0.043982442
-0.054329522 0.1943163 0.251507 0.055825777 -0.07821536 0.055163626 0.09098298 0.09800712
-0.0017649342 -0.009666931 -0.14189142 -0.121181205 0.030756913 -0.04337112 0.313446 0.030962052
-0.074709006 0.021959187 0.13275108 0.0129720345 -0.068425104 0.0063651293 -0.023500228 -0.031672154
-0.111503854 0.242883 0.28533724 0.06217871 0.08182909 0.023757622 0.03036915 0.015828717
0.022221942 -0.12789139 0.14244705 -0.11259132 0.28072765 0.021456579 0.07299595 0.061271816
-0.33511528 -0.4454866 0.4829693 0.42062095 0.019777752 0.08844732 -0.056290988 0.07114427
-0.012426652 -0.01941596 -0.05314477 0.020434052 0.014190599 0.044453964 -0.054522008 -0.08274375
0.29043263 -0.21573262 0.32622525 -0.3044081 -0.35072288 0.21063793 -0.11936919 0.11402474
0.06265217 0.06807845 0.009216222 0.07554672 -0.058921568 -0.005425282 0.028828144 0.06818323
00000000: f239 153e 80e8 5e3e 8e11 a23f 6929 743c
00000010: 95c9 9bba e1fb 823d e667 353d a500 f0bc
00000020: 4816 36bd 307a 18bd 1216 9dbd a735 dfbd
00000030: 602e 7cbc 7dbb adbd cca4 e5bc c8a8 473c
00000040: 3cf8 333d 1c99 1abd 6803 773d 8441 303d
00000050: 8027 34ba 5f4c 41bd 94c3 95bd fcc2 fe3c
00000060: 0011 1d3b 603a be3b c0d0 0e3c 90c9 9c3d
00000070: 8e76 a13d 0872 b13c b86c 843d 31a3 35bd
00000080: 2020 473c 28e8 843c d226 89bd 625f ecbc
00000090: ca03 fbbc d04a e1bc d446 853d 4c54 3d3d
000000a0: 4c6c 903d 83c2 3fbd 5f25 94bd 7457 983d
000000b0: 9f09 58bd f4a2 0fbd 08e3 d5bc 2437 b83d
000000c0: 84d2 113d ffc8 63bd fe40 913d a099 053b
000000d0: 1c16 84bd 804a 65bb 78c6 4b3c 9825 153d
000000e0: 7638 ab3d 16b6 71bd ece3 c1bc 5009 4dbc
000000f0: 5212 89bd 084b aa3d a4e2 13bd edd4 68bd
00000100: b9c8 c4bc fff4 043e 4117 133d 97cc 883c
00000110: 139c 0d3d d89f f33a 9c09 2bbd 2657 f43b
00000120: 90f9 8bbd 0e42 633d bd26 5b3c 2ecc c53d
00000130: 8941 28bd 0702 babc d4f8 8ebc 0464 483b
00000140: c8d2 04bd 355b 8abc 97d0 f03b 0044 153d
00000150: f8bb ccbd b620 86bc bcc6 b13d 3087 c73c
00000160: 03f0 25bd 0190 873d 2ddc 70bd 142d 933d
00000170: 9c68 fabc 6a6f 8fbd fd24 233d bab3 713d
00000180: 379d c6bc 2b8c 5c3d a3ef 84bd 0b26 de3d
00000190: d0c1 b5bc 1129 1d3e c971 1e3a fb7e 9d3d
000001a0: a5cc 3ebe fcfb 3abe 777c 1e3e 5550 fe3c
000001b0: 0070 403c 2e62 afbc 2e0f b93d 40d4 c8ba
000001c0: 2c22 943d 782f 6a3d 6a23 803d 2327 87bd
000001d0: e5b5 6abd f819 a53d ab7e 01bd b51e 45bd
000001e0: 89f7 4a3e 4bca c4bd 4567 01c0 a770 d23e
000001f0: 389c 97bd abcf 17be e5be bf3c bc1c e53b
00000200: fd83 963d 79af 11be a8f2 75bc 50fb 753d
00000210: 3876 5a3d 229e 14bd 9402 6a3d b6b4 943d
00000220: 8872 903d a0b8 a63c f2c4 96bd 2886 033d
00000230: fc43 103d 8a1e 0bbd 6050 9fbc b008 673c
00000240: 69fb 04bd 713a 64bd 58fe 8c3c a0d5 503d
00000250: d82a 2bbc 730f 50bd 5a6b b43d ec8f eabc
00000260: 0814 733d 9e86 87bd 3c67 ddbc 049d 2abd
00000270: 3edb b93d 3021 963d 6e34 59bd 70e7 333d
00000280: 5a1f 6bbd b27d af3d 283c 913d d018 e7bb
00000290: ace1 023d f381 b5bd ac25 a0bc 006f 213d
000002a0: 1117 2ebd 310c a5bd f81d 0f3d 903c 433d
000002b0: 6451 cd3c 21f0 0dbd b576 70bd 3857 473d
000002c0: 0881 5c3d 04c5 2d3d 701c 50bd 06ca a7bd
000002d0: f069 9c3c 1cfb 043d f09c 23bd ef26 34bd
000002e0: a288 5ebd dafa 463e 87c5 803e 92a9 643d
000002f0: 602f a0bd 41f3 613d 4955 ba3d f5b7 c83d
00000300: 5d55 e7ba 0c62 1ebc fc4b 11be da2d f8bd
00000310: ecf5 fb3c eaa5 31bd fe7b a03e 21a4 fd3c
00000320: 0901 99bd c1e3 b33c e6ef 073e a888 543c
00000330: 7622 8cbd 9392 d03b 8d83 c0bc a9ba 01bd
00000340: 225c e4bd 52b6 783e b917 923e 1aaf 7e3d
00000350: 0396 a73d 589f c23c b9c8 f83c 3aab 813c
00000360: ca0a b63c f6f5 02be a4dd 113e 4796 e6bd
00000370: 89bb 8f3e b5c5 af3c e77e 953d 28f8 7a3d
00000380: 3b94 abbe d216 e4be c147 f73e a15b d73e
00000390: f404 a23c de23 b53d 6191 66bd 16b4 913d
000003a0: 2899 4bbc 380e 9fbc 55ae 59bd 5065 a73c
000003b0: b07f 683c 5c15 363d 7852 5fbd 8e75 a9bd
000003c0: 96b3 943e 03e9 5cbe ff06 a73e 61db 9bbe
000003d0: f391 b3be 78b1 573e d577 f4bd ce85 e93d
000003e0: c84f 803d b76c 8b3d a3ff 163c 3db8 9a3d
000003f0: be57 71bd 90c6 b1bb 0029 ec3c a6a3 8b3d

net.0.bias f4 [128]
-0.21782994 0.7027452 -0.45472747 0.6918317 -0.045248568 0.59945506 0.37808603 -0.15425113
0.1220408 -0.21261874 -0.02018069 -0.12851657 -0.28093335 0.22842443 -0.27358875 -0.23653546
0.5400859 0.5726132 0.31397963 -0.1856209 -0.08719465 0.7492186 0.40073413 0.6119582
-0.0007769119 0.4945627 0.57131296 -0.0586184 -0.14643653 -0.21462545 0.16658747 0.6575829
-0.11575972 0.74285185 0.70149195 0.5421773 0.08706703 0.47328264 -0.33839083 0.607968
0.049791634 0.45864272 0.47000867 0.31604648 0.524493 -0.061479397 0.38609728 0.55103266
-0.17142202 0.1271669 -0.1095674 0.27420232 -0.08781331 -0.035130374 -0.09127851 -0.26664546
-0.10580884 -0.075077474 0.6587575 -0.18686529 -0.06819212 0.61171484 0.71566725 -0.3344163
-0.026017526 0.3556055 0.4942059 0.7214538 -0.40101403 0.06464596 0.2595221 -0.115503795
0.585046 0.66147894 -0.112502955 0.6240497 -0.048865512 0.50188714 0.36648288 0.5942576
-0.21009997 -0.19974536 0.1356784 -0.16010462 -0.18676889 0.51101995 0.59573305 -0.23109013
0.4928582 -0.06999633 0.61697686 -0.14688383 0.32681102 0.3673515 0.46272343 0.6359756
-0.06537813 -0.14538714 0.40565807 -0.14249578 0.75421643 0.14482918 0.19376689 -0.014700323
0.37955588 0.38711986 0.40504584 -0.026350189 0.6521795 0.6483993 0.6094199 0.06768492
-0.06726283 0.24025251 0.37593508 -0.09570093 0.5305744 -0.14748271 -0.15523112 0.4574996
0.3709204 -0.107269436 0.0522173 0.00015741252 0.027835093 0.035692874 0.5856108 0.44012415
00000000: d00e 5fbe 1ce7 333f 0ad2 e8be e21b 313f
00000010: 9056 39bd e375 193f 7e94 c13e 02f4 1dbe
00000020: 87f0 f93d bab8 59be f951 a5bc d999 03be
00000030: 7fd6 8fbe 18e8 693e d313 8cbe 5a36 72be
00000040: 1243 0a3f c796 123f f0c1 a03e 6813 3ebe
00000050: 1c93 b2bd cacc 3f3f 062d cd3e 4ba9 1c3f
00000060: ada9 4bba 5237 fd3e 9141 123f d919 70bd
00000070: 75f3 15be c6c6 5bbe e895 2a3e 5a57 283f
00000080: 6f13 edbd 8a2b 3e3f fa94 333f 22cc 0a3f
00000090: 3350 b23d 1a52 f23e 9041 adbe caa3 1b3f
000000a0: 50f2 4b3d 38d3 ea3e faa4 f03e d8d0 a13e
000000b0: 2c45 063f d2d1 7bbd 8bae c53e 7a10 0d3f
000000c0: 4189 2fbe 0a38 023e df64 e0bd 3f64 8c3e
000000d0: 77d7 b3bd dee4 0fbd 3af0 babd c185 88be
000000e0: 4eb2 d8bd 38c2 99bd 55a4 283f 9d59 3fbe
000000f0: 4fa8 8bbd 5899 1c3f f835 373f 9d38 abbe
00000100: b522 d5bc ed11 b63e 8e08 fd3e 32b1 383f
00000110: b651 cdbe 1a65 843d 15e0 843e 418d ecbd
00000120: 93c5 153f af56 293f f367 e6bd b9c1 1f3f
00000130: 3427 48bd ad7b 003f a5a3 bb3e 4421 183f
00000140: 7224 57be 0c8a 4cbe 47ef 0a3e 77f2 23be
00000150: 5840 3fbe 34d2 023f f681 183f e4a2 6cbe
00000160: e957 fc3e 3c5a 8fbd 32f2 1d3f b768 16be
00000170: c653 a73e 7f15 bc3e 16ea ec3e 4ccf 223f
00000180: f8e4 85bd 5ee0 14be 6ab2 cf3e 6aea 11be
00000190: 5414 413f 1a4e 143e d46a 463e a0d9 70bc
000001a0: 2655 c23e 9334 c63e 2b62 cf3e 5adc d7bc
000001b0: 3cf5 263f 7ffd 253f f102 1c3f 649e 8a3d
000001c0: 18c1 89bd c104 763e 907a c03e d9fe c3bd
000001d0: b9d3 073f b505 17be e8f4 1ebe 633d ea3e
000001e0: 47e9 bd3e 14b0 dbbd cfe1 553d 1a0f 2539
000001f0: 6c06 e43c b132 123d 97ea 153f f457 e13e

net.2.weight f4 [128, 128]
0.18289639 -1.1800019 -0.44058368 0.17887513 0.13954532 0.048463117 0.058909673 -0.550577
-0.10675468 0.13484147 0.2605541 0.19590332 0.24098167 -0.030719625 -1.738529 0.19344527
0.122737065 -0.004442945 -0.027194686 0.032160323 0.31970605 0.07245158 0.061202843 0.23390886
0.15665683 0.18707845 0.04741136 0.26857248 0.23443481 0.19090691 0.40751863 0.13395344
0.30883002 0.19311146 -0.7711886 -0.012675285 -0.42589772 -0.0303008 -1.3033623 0.079671256
-1.4382759 0.25110236 -0.000109964516 -0.21027628 -0.010324435 -0.02412859 -0.17234813 0.035661317
0.22262901 0.8715901 0.045180485 0.11622407 0.00016194955 -0.56803614 0.029705696 0.1628765
-0.63850766 0.0428958 0.052545 0.1516783 -0.0071381927 0.2636362 0.23013969 2.207908
-1.1139977 -0.66878307 0.024026548 0.110216945 0.25794277 0.3060801 0.017157514 0.11349937
0.015170019 0.2019711 0.16388963 0.19141968 0.023562513 0.33043817 0.0051863627 0.031293
0.07411712 -1.2072772 -0.060110606 0.2805068 0.21301825 0.057051748 -1.1364833 0.23586921
-0.050887227 -0.5557891 0.22021474 0.104425795 -0.042745758 0.1451258 -0.5943783 0.08678869
0.50600356 0.19855416 0.1629696 0.27749586 0.011678615 -0.4788553 -0.04780987 0.29033956
-0.53664994 0.018328 0.1945865 0.59372914 0.061168984 0.12719855 -0.071386755 0.48737347
0.104138575 0.022323625 -0.26439446 0.44111767 0.09482429 0.1367952 0.19107462 0.4860319
-0.22724812 -0.90468454 -0.050086107 -1.6495423 0.003208938 -0.6921881 0.09631522 0.05350089
0.04904304 -0.645223 -0.0872709 -0.012430446 0.11710868 -0.035590198 -0.017494706 0.6877755
0.061918605 0.0049076527 -0.25624812 0.09352132 -0.0020462642 0.017340126 1.8575805 0.09615989
0.04528892 0.04260229 -0.054977745 0.09422928 0.026710598 0.028454382 0.0055009825 -0.108967796
0.06521128 0.11736751 -0.09672589 -0.17198822 -0.25470844 -0.0012864383 -0.19232702 0.13506496
0.13048239 0.033646658 0.4804308 -0.036174353 -0.07517806 -0.006936066 1.4954007 0.01948948
2.6976929 0.09591412 0.11858011 0.02063752 0.1275932 0.017401377 0.022590887 -0.088576
0.10587364 -0.293396 -0.0119622545 -0.27489796 0.04685556 0.11963983 -0.03310697 0.044478845
-0.14304765 -0.055816777 -0.10241997 0.098779194 0.0002496019 0.028914249 -0.13502231 -1.6527809
1.4761893 0.6816895 -0.018310927 -0.04593937 0.09964807 -0.12867579 -0.09582463 0.15637104
-0.06657504 -0.44826952 0.06334722 -0.05973582 0.08231289 -0.36442754 -0.0125032095 -0.018488128
0.088408634 0.60519665 -0.027689867 0.057403106 0.08379996 0.046704862 0.8130476 0.0620209
-0.1923418 -0.3027528 0.027045453 0.033206385 0.011981464 0.06338207 -0.11852808 -0.015317853
-0.072717816 0.040938377 -0.06579522 0.15440685 -0.10355595 0.08679651 0.13425376 0.08532974
1.0722578 0.0016214448 -0.336237 -0.11256631 -0.13346764 0.1358616 0.00088626385 -0.11806041
0.12120225 1.2978889 -0.015675545 -0.4487387 0.14333443 0.07691983 0.08745667 -0.49605972
0.12322391 0.33538973 -0.3528335 1.9670151 0.39390123 0.39828506 0.12152735 -0.097313
00000000: 3149 3b3e 4d0a 97bf 2f94 e1be 0b2b 373e
00000010: f8e4 0e3e 4381 463d 454b 713d 9df2 0cbf
00000020: 33a2 dabd e213 0a3e 5967 853e e19a 483e
00000030: e6c3 763e b9a7 fbbc 1e88 debf 8416 463e
00000040: 925d fb3d 2096 91bb 64c7 debc 8bba 033d
00000050: 83b0 a33e 7e61 943d d5af 7a3d ce85 6f3e
00000060: a66a 203e 7e91 3f3e 6a32 423d 5582 893e
00000070: ae0f 703e 1a7d 433e 48a6 d03e 172b 093e
00000080: f81e 9e3e 03bf 453e 9e6c 45bf 00ac 4fbc
00000090: 440f dabe 6239 f8bc 93d4 a6bf af2a a33d
000000a0: 6d19 b8bf 7d90 803e c09c e6b8 aa52 57be
000000b0: d227 29bc 52a9 c5bc 077c 30be 9a11 123d
000000c0: dcf8 633e 8720 5f3f 2c0f 393d e306 ee3d
000000d0: 00d1 2939 d16a 11bf 5c59 f33c 19c9 263e
000000e0: 3d75 23bf 82b3 2f3d 6d39 573d 8e51 1b3e
000000f0: 80e7 e9bb 53fb 863e bda9 6b3e 5d4e 0d40
00000100: 7a97 8ebf 5e35 2bbf 53d3 c43c 6cb9 e13d
00000110: 1311 843e 88b6 9c3e ea8d 8c3c 5c72 e83d
00000120: ac8b 783c 83d1 4e3e afd2 273e 8503 443e
00000130: 2c06 c13c 312f a93e 5df2 a93b 172d 003d
00000140: b7ca 973d 0f88 9abf 8a36 76bd 969e 8f3e
00000150: 7521 5a3e 18af 693d 4978 91bf b387 713e
00000160: 206f 50bd 3248 0ebf f97f 613e 31dd d53d
00000170: 2d16 2fbd dc9b 143e 2d29 18bf 45be b13d
00000180: 7389 013f c851 4b3e 81e1 263e f013 8e3e
00000190: a957 3f3c 862c f5be 48d4 43bd 63a7 943e
000001a0: e461 09bf 9a24 963c af41 473e a2fe 173f
000001b0: 548c 7a3d 5640 023e 3833 92bd 0489 f93e
000001c0: 9b46 d53d 09e0 b63c b65e 87be 2dda e13e
000001d0: 3d33 c23d 0a14 0c3e 11a9 433e 2cd9 f83e
000001e0: bbb3 68be 6899 67bf 1727 4dbd 3424 d3bf
000001f0: 0c4d 523b 3d33 31bf ea40 c53d c023 5b3d
00000200: 5be1 483d 562d 25bf 16bb b2bd 12a9 4bbc
00000210: add6 ef3d 07c7 11bd 0f51 8fbc 0e12 303f
00000220: 5d9e 7d3d 60d0 a03b f432 83be 1b88 bf3d
00000230: 9e1a 06bb e10c 8e3c 33c5 ed3f 7aef c43d
00000240: e080 393d bd7f 2e3d 5830 61bd 48fb c03d
00000250: 2fd0 da3c 2a19 e93c 9641 b43b 822a dfbd
00000260: 7e8d 853d 615e f03d 3918 c6bd ae1d 30be
00000270: 2569 82be b59d a8ba 60f1 44be 784e 0a3e
00000280: 2d9d 053e 14d1 093d 07fb f53e 8f2b 14bd
00000290: f4f6 99bd f047 e3bb 4a69 bf3f 67a8 9f3c
000002a0: 00a7 2c40 9f6e c43d 21da f23d 0410 a93c
000002b0: cba7 023e 558d 8e3c 8610 b93c 5567 b5bd
000002c0: 47d4 d83d 0038 96be 55fd 43bc 6dbf 8cbe
000002d0: 9eeb 3f3d ba05 f53d 2d9b 07bd 732f 363d
000002e0: 157b 12be 22a0 64bd 90c1 d1bd bf4c ca3d
000002f0: 00dd 8239 93dd ec3c 4a43 0abe 538e d3bf
00000300: c5f3 bc3f 3483 2e3f cc00 96bc ec2a 3cbd
00000310: 4a14 cc3d 96c3 03be b43f c4bd bb1f 203e
00000320: 7f58 88bd 9583 e5be 30bc 813d 8cad 74bd
00000330: a993 a83d 3f96 babe 43da 4cbc 6a74 97bc
00000340: 960f b53d 2bee 1a3f dcd5 e2bc 851f 6b3d
00000350: 509f ab3d 994d 3f3d e323 503f a109 7e3d
00000360: 40f5 44be 6a02 9bbe 6d8e dd3c 6b03 083d
00000370: e74d 443c 75ce 813d dabe f2bd bbf7 7abc
00000380: 14ed 94bd 00af 273d a5bf 86bd d41c 1e3e
00000390: 2415 d4bd 5ec2 b13d d179 093e 5cc1 ae3d
000003a0: be3f 893f a986 d43a 4227 acbe 2a89 e6bd
000003b0: beab 08be 4e1f 0b3e 2954 683a a8c9 f1bd
000003c0: e338 f83d 3921 a63f 006a 80bc 14c1 e5be
000003d0: 43c6 123e 2588 9d3d 7c1c b33d 8afb fdbe
000003e0: d15c fc3d 34b8 ab3e 98a6 b4be 27c7 fb3f
000003f0: 6cad c93e 05ec cb3e 55e3 f83d 0a4c c7bd

net.2.bias f4 [128]
0.067542836 -0.24583909 0.04340368 0.257887 0.116773054 0.57534814 0.54338455 -0.08814114
-0.3987746 0.13579251 0.11240252 0.63318247 0.27721396 0.115168355 -0.047115594 -0.085403405
0.052421466 0.12269241 -0.52278775 -0.0861638 -0.31622687 -0.018103603 -0.017227575 0.0120574385
-0.093049236 -0.010766 0.01295631 0.053317875 -0.015752772 0.08464666 0.049873393 0.19788024
-0.057978194 0.065698706 0.0896391 0.05037018 0.44252408 -0.06541902 -0.0627314 0.49213636
0.06159402 0.019849679 0.66328967 0.10700782 0.2818056 -0.046496987 0.42741638 -0.079049215
-0.08435246 -0.08200644 0.17925492 -0.045258116 0.15156841 -0.12189217 -0.10060197 0.065650254
0.62700987 0.08058239 0.03357995 0.6556324 -0.13129942 0.22198075 0.03252363 0.04588287
0.099779315 0.19103135 0.14361288 0.42163503 -0.07966193 0.23574932 0.63723886 0.53219664
-0.031115921 0.25675112 -0.028023718 0.026435345 0.20813602 0.042833235 0.16628067 0.65505683
-0.080151595 0.30198264 0.0116866315 0.13388453 -0.07811036 -0.44763854 0.24779303 0.018744031
-0.3593088 0.44151074 0.031167828 0.5985711 -0.07985378 0.30835307 -0.0634384 0.116902746
0.47982812 0.06204858 0.121011205 0.6701388 -0.05881984 0.50895154 0.30806226 0.017868796
0.06765842 0.037296746 0.21310286 -0.22929157 0.22676791 -0.080946356 -0.05894045 0.040781103
-0.032321755 0.46030945 -0.08476169 -0.05826904 0.0052747843 0.18317996 -0.015098003 0.033427678
-0.073970154 0.10046967 -0.3078643 -0.24608362 0.011914554 -0.03623242 0.096262954 -0.018443692
00000000: e653 8a3d 3ebd 7bbe 0fc8 313d c409 843e
00000010: b626 ef3d 044a 133f 401b 0b3f 5883 b4bd
00000020: 2f2c ccbe 310d 0b3e 4b33 e63d 3f18 223f
00000030: fdee 8d3e 63dd eb3d 48fc 40bd fbe7 aebd
00000040: e4b7 563d 2946 fb3d 6bd5 05bf a576 b0bd
00000050: 7de8 a1be 024e 94bc d820 8dbc 908c 453c
00000060: 9990 bebd e063 30bc b446 543c d863 5a3d
00000070: f50b 81bc 3a5b ad3d 0b48 4c3d 1ea1 4a3e
00000080: 8b7a 6dbd 0b8d 863d b494 b73d f650 4e3d
00000090: 8492 e23e 68fa 85bd 5279 80bd 4cf9 fb3e
000000a0: 034a 7c3d cb9b a23c 5acd 293f ea26 db3d
000000b0: d348 903e a073 3ebd 52d6 da3e 8ee4 a1bd
000000c0: fcc0 acbd fef2 a7bd 9a8e 373e 9360 39bd
000000d0: c034 1b3e 9aa2 f9bd 6808 cebd a473 863d
000000e0: b883 203f 6108 a53d 218b 093d 86d7 273f
000000f0: 5b73 06be ec4e 633e 7f37 053d adef 3b3d
00000100: 1959 cc3d b99d 433e 410f 133e 8ce0 d73e
00000110: cb25 a3bd 4568 713e 1622 233f 0a3e 083f
00000120: d1e6 febc e274 833e ff91 e5bc f08e d83c
00000130: 9c21 553e e771 2f3d 7b45 2a3e ceb1 273f
00000140: 8526 a4bd 789d 9a3e 4979 3f3c 0719 093e
00000150: 53f8 9fbd e130 e5be 75bd 7d3e 158d 993c
00000160: 53f7 b7be b20d e23e ac53 ff3c f53b 193f
00000170: 618a a3bd 74e0 9d3e feeb 81bd b56a ef3d
00000180: 08ac f53e a726 7e3d b9d4 f73d 378e 2b3f
00000190: 13ed 70bd a64a 023f 56ba 9d3e 9561 923c
000001a0: 7f90 8a3d 79c4 183d a337 5a3e 69cb 6abe
000001b0: d935 683e 34c7 a5bd 8b6b 71bd 160a 273d
000001c0: d163 04bd aead eb3e 8997 adbd 84ab 6ebd
000001d0: 19d8 ac3b 8793 3b3e 9d5d 77bc 76eb 083d
000001e0: aa7d 97bd 0bc3 cd3d 64a0 9dbe 58fd 7bbe
000001f0: 4335 433c 7268 14bd 8325 c53d 3a17 97bc

net.4.weight f4 [18, 128]
0.23859295 -0.16717115 -0.2983147 -0.26216254 0.23160869 -0.24245703 -0.40114865 0.06506211
-0.21180804 -0.18768598 -0.0814795 -0.4336419 0.16997775 0.21640745 -0.030924652 0.060318504
-0.08788519 0.27416113 -0.09904306 0.060578387 -0.06582736 0.07137491 -0.0043744966 -0.055911418
-0.06847951 0.017773364 -0.054945115 0.028076632 -0.110542804 0.062139396 -0.01883513 0.20479885
0.0836935 0.075494885 -0.059051886 0.24149323 -0.33845106 -0.28615123 0.033084653 -0.36839497
0.08609883 0.017290002 -0.3356616 0.0614573 0.52156407 -0.057273023 -0.36232597 0.017286204
-0.0221356 -0.03531242 0.2270211 -0.0093808025 -0.047344577 -0.007543321 -2.2245312 -0.005141122
-0.2938259 0.046842687 0.03172112 -0.29268184 -1.4998766 0.28883493 -0.03829557 -0.051074497
0.27213183 0.21210961 -1.0358396 -0.32414585 0.032492064 0.2917324 -0.34078825 -0.38470626
-0.027687056 -0.6496747 -0.07902276 -0.30636153 0.2531687 0.008738091 0.21595703 -0.45116898
-0.043753922 -0.2286886 0.080414675 0.23244235 -0.08165685 -0.2156109 -0.2291138 -0.021995332
-0.21173482 -0.28115907 -0.058890574 -0.41296262 -0.023612708 -1.2441853 -0.052854426 -0.12390615
-0.32093528 -0.05186781 0.39681888 -0.38193235 -0.03795375 -0.30056918 -1.2048016 0.0110206455
-0.12789175 -0.4472496 -0.38808814 -0.29292703 -0.76797354 0.07421466 -0.101389445 0.26795247
-0.0034332722 -0.35270095 -0.026966218 -0.02976147 -0.02320261 0.15800282 -0.07870281 -0.13983776
-0.043879256 -0.15688497 -0.3426124 -0.11274936 -0.31944847 0.013822044 -0.09480135 0.03172821
0.21292877 -0.17763585 -1.1865299 -0.2077515 0.24133123 -0.3889878 -0.36843064 0.014862604
-0.1484737 -0.24334061 -0.086613916 -0.3342763 0.06522345 0.29460773 0.009868351 0.036943357
-0.037213244 0.29405496 -0.121072814 0.02290345 -0.09364238 0.08391719 0.026429825 -0.06377097
-0.07347584 0.011157207 -0.048737638 -0.007199148 -0.098055854 0.06804099 -0.0010324894 0.2528266
-0.051510148 -0.0009055967 -0.01789159 0.27169606 -0.33769962 -0.23845758 -0.019678615 -0.34961364
0.028684631 0.07252406 -0.34816837 0.10613417 0.53913957 -0.0015699983 -0.25109828 -0.052995916
0.03861204 -0.032713942 0.13156499 0.026649155 -0.018301606 -0.106272794 -2.2746165 -0.022828652
-0.3240772 -0.09064936 -0.027020859 -0.41437602 -1.6490476 0.37630066 -0.008326134 -0.052089386
0.23050399 0.23550464 -0.971791 -0.40011024 -0.04025395 0.37694353 -0.41258305 -0.28955838
-0.0134786675 -0.70302045 -0.045517918 -0.32065982 0.20933564 -0.0752796 0.13735218 -0.39702004
0.05025082 -0.2678645 0.06087531 0.17377658 0.044049926 -0.14957651 -0.3013123 0.0062784003
-0.11385339 -0.33227628 -0.06159959 -0.34159842 0.027521204 -1.2739291 -0.069518864 -0.16651213
-0.32646644 -0.04960033 0.39898977 -0.4236651 -0.06454218 -0.1967161 -1.0726438 0.06599832
-0.10207716 -0.41318047 -0.34921476 -0.32664764 -0.7460313 -0.042572062 -0.094130285 0.28895828
0.07038551 -0.3324264 -0.0007386212 -0.08036343 -0.055827472 0.120528124 -0.039203726 -0.07389061
-0.064726286 -0.24380705 -0.3789942 -0.15709022 -0.30504045 0.08519487 -0.12822121 0.02556196
00000000: b651 743e ea2e 2bbe b4bc 98be 2b3a 86be
00000010: d42a 6d3e a846 78be 5b63 cdbe 493f 853d
00000020: 35e4 58be c130 40be b9de a6bd 5006 debe
00000030: a60e 2e3e ea99 5d3e b255 fdbc 8910 773d
00000040: 27fd b3bd d95e 8c3e 16d7 cabd 0b21 783d
00000050: 7fd0 86bd 022d 923d f057 8fbb 5f03 65bd
00000060: fc3e 8cbd 7299 913c 210e 61bd f700 e63c
00000070: 4464 e2bd e185 7e3d 214c 9abc cab6 513e
00000080: 7f67 ab3d 109d 9a3d 64e0 71bd 004a 773e
00000090: 7549 adbe 6a82 92be c683 073d 449e bcbe
000000a0: 9554 b03d c3a3 8d3c d6db abbe a6ba 7b3d
000000b0: 3985 053f 1e97 6abd ca82 b9be cc9b 8d3c
000000c0: b855 b5bc c2a3 10bd 3878 683e f0b1 19bc
000000d0: 63ec 41bd f62d f7bb b85e 0ec0 db76 a8bb
000000e0: 5970 96be 1ede 3f3d 01ee 013d 65da 95be
000000f0: f5fb bfbf 2ce2 933e d1db 1cbd 7e33 51bd
00000100: dd54 8b3e 4333 593e 6496 84bf 72f6 a5be
00000110: 6616 053d f35d 953e cc7b aebe 38f8 c4be
00000120: f7cf e2bc 1551 26bf afd6 a1bd 6bdb 9cbe
00000130: 549f 813e 362a 0f3c d723 5d3e 9fff e6be
00000140: 5037 33bd 582d 6abe 73b0 a43d 5e05 6e3e
00000150: b53b a7bd 1bc9 5cbe cf9c 6abe 8e2f b4bc
00000160: 03d1 58be 15f4 8fbe 3e37 71bd d66f d3be
00000170: 706f c1bc 7741 9fbf e27d 58bd 82c2 fdbd
00000180: a151 a4be 5773 54bd d82b cb3e a38c c3be
00000190: 6475 1bbd 34e4 99be f036 9abf f08f 343c
000001a0: 0ef6 02be e6fd e4be 7db3 c6be 88fa 95be
000001b0: ea99 44bf dbfd 973d 45a5 cfbd 1131 893e
000001c0: c000 61bb 3895 b4be 42e8 dcbc 54ce f3bc
000001d0: 6613 bebc 7ecb 213e f02e a1bd a131 0fbe
000001e0: bcba 33bd 74a6 20be e46a afbe 23e9 e6bd
000001f0: c08e a3be db75 623c 3627 c2bd 71f5 013d
00000200: 000a 5a3e 2ce6 35be 36e0 97bf cfbc 54be
00000210: 891f 773e 6929 c7be f1a2 bcbe 4882 733c
00000220: 7d09 18be 482e 79be a362 b1bd 4326 abbe
00000230: df93 853d d3d6 963e ddae 213c eb51 173d
00000240: ea6c 18bd 5f8e 963e 06f5 f7bd 04a0 bb3c
00000250: 93c7 bfbd c7dc ab3d 5c83 d83c 5b9a 82bd
00000260: 807a 96bd b8cc 363c 1ea1 47bd d5e6 ebbb
00000270: 82d1 c8bd 1359 8b3d 9854 87ba 7d72 813e
00000280: 4efc 52bd 9165 6dba 6291 92bc bf1b 8b3e
00000290: f7e6 acbe 392e 74be 0c35 a1bc 8f00 b3be
000002a0: 08fc ea3c 7f87 943d 2043 b2be df5c d93d
000002b0: 0d05 0a3f 67c8 cdba f48f 80be 3f12 59bd
000002c0: a927 1e3d 0eff 05bd f9b8 063e 544f da3c
000002d0: 40ed 95bc 8da5 d9bd 5193 11c0 2703 bbbc
000002e0: 72ed a5be 5fa6 b9bd d95a ddbc 1829 d4be
000002f0: fe13 d3bf 7baa c03e 566a 08bc ae5b 55bd
00000300: 3d09 6c3e 2128 713e 4cc7 78bf 40db ccbe
00000310: 53e1 24bd befe c03e 163e d3be ff40 94be
00000320: a1d5 5cbc 26f9 33bf ff70 3abd 862d a4be
00000330: 155c 563e 312c 9abd 0da6 0c3e 3646 cbbe
00000340: ced3 4d3d 8925 89be 6458 793d 7df2 313e
00000350: b26d 343d 962a 19be 9b45 9abe 0abb cd3b
00000360: f72b e9bd 1e20 aabe da4f 7cbd fde5 aebe
00000370: 2674 e13c 1c10 a3bf e85f 8ebd 2882 2abe
00000380: 9c26 a7be b729 4bbd 6348 cc3e a2ea d8be
00000390: b12e 84bd f26f 49be 644c 89bf 212a 873d
000003a0: d40d d1bd 648c d3be 47cc b2be 5c3e a7be
000003b0: e8fb 3ebf 0b60 2ebd 61c7 c0bd 57f2 933e
000003c0: 4726 903d cb33 aabe 08a0 41ba 9595 a4bd
000003d0: 59ab 64bd 73d7 f63d 1694 20bd f653 97bd
000003e0: 378f 84bd 8ea8 79be 870b c2be 42dc 20be
000003f0: 432e 9cbe a67a ae3d 6c4c 03be 5167 d13c

net.4.bias f4 [18]
-0.049292024 -0.08481504 0.02951832 -0.01641933 0.071161754 0.021731492 -0.1063053 -0.036798026
-0.009392336 0.023721999 0.14667565 0.16103193 -0.09065906 0.024414822 0.0066360445 0.0727089
0.17556472 0.09590307
00000000: 6fe6 49bd 82b3 adbd 67d0 f13c d581 86bc
00000010: 41bd 913d 3e06 b23c 98b6 d9bd 87b9 16bd
00000020: 50e2 19bc a354 c23c 2432 163e 8ee5 243e
00000030: 75ab b9bd 9801 c83c 2d73 d93b 67e8 943d
00000040: 3dc7 333e d468 c43d
