save_model/model_4000000(v2).pth (torch, 140445 bytes, 6 tensors)

net.0.weight f4 [128, 120]
00000000: 726a 213e b8d1 553e 401a 9e3f 8821 0c3d
00000010: ec43 bb3c 0b5f 333c a7e2 c13c b5f2 4ebd
00000020: 67b9 2fbc 850b 54ba 6a5f 67bd 3fc7 a8bd
00000030: 602e 7cbc 7dbb adbd cca4 e5bc c8a8 473c
00000040: 3cf8 333d 1c99 1abd 6803 773d 8441 303d
00000050: 8027 34ba 5f4c 41bd 94c3 95bd fcc2 fe3c
00000060: 0011 1d3b 603a be3b c0d0 0e3c 90c9 9c3d
00000070: 8e76 a13d 0872 b13c b86c 843d 31a3 35bd
00000080: 2020 473c 28e8 843c d226 89bd 625f ecbc
00000090: ca03 fbbc d04a e1bc d446 853d 4c54 3d3d
000000a0: 4c6c 903d 83c2 3fbd 5f25 94bd 7457 983d
000000b0: 9f09 58bd f4a2 0fbd 08e3 d5bc 2437 b83d
000000c0: 84d2 113d ffc8 63bd fe40 913d a099 053b
000000d0: 1c16 84bd 804a 65bb 78c6 4b3c 9825 153d
000000e0: 7638 ab3d 16b6 71bd ece3 c1bc 5009 4dbc
000000f0: 5212 89bd 084b aa3d a4e2 13bd edd4 68bd
00000100: 5d68 d4bc 55af db3d e945 043b 46ee 88bc
00000110: c53a cf3c 0306 533b d2dc bdbd fbd9 09bd
00000120: fbe2 90bd 1c78 103d 0ed7 d83b 6f97 c03d
00000130: 06ac 00bd 5465 ddbc 1104 74bc dc85 22bc
00000140: 7e1e f9bc f1da a63c 306c 033d 18f6 7c3d
00000150: b3a8 cebd 0379 313a 8126 d33b d51e 943c
00000160: ab69 7dbd 3f71 503d 1456 6bbd d171 7c3d
00000170: 5ced 5cbd e75e a1bd 6517 f83c fac1 7b3d
00000180: b525 1ebd fefb 213d d5e8 02bd 95e1 c63d
00000190: dd16 2fbc 7395 143e f531 623a eb99 a73d
000001a0: 7b0f 49be 1127 51be d7c8 c63a f57d 3cbd
000001b0: 6123 413c c5c6 b9bc 2e0f b93d 40d4 c8ba
000001c0: 2c22 943d 782f 6a3d 6a23 803d 2327 87bd
000001d0: e5b5 6abd f819 a53d ab7e 01bd b51e 45bd
000001e0: decb 3b3e 8c67 efbd 4b15 ffbf 8b88 b03e
000001f0: 91ac aabd 79b9 fdbd 6a23 e93c 5cd2 bdbb
00000200: 307f b43d 62c2 24be a8f2 75bc 50fb 753d
00000210: 3876 5a3d 229e 14bd 9402 6a3d b6b4 943d
00000220: 8872 903d a0b8 a63c f2c4 96bd 2886 033d
00000230: fc43 103d 8a1e 0bbd 6050 9fbc b008 673c
00000240: 69fb 04bd 713a 64bd 58fe 8c3c a0d5 503d
00000250: d82a 2bbc 730f 50bd 5a6b b43d ec8f eabc
00000260: 0814 733d 9e86 87bd 3c67 ddbc 049d 2abd
00000270: 3edb b93d 3021 963d 6e34 59bd 70e7 333d
00000280: 5a1f 6bbd b27d af3d 283c 913d d018 e7bb
00000290: ace1 023d f381 b5bd ac25 a0bc 006f 213d
000002a0: 1117 2ebd 310c a5bd f81d 0f3d 903c 433d
000002b0: 6451 cd3c 21f0 0dbd b576 70bd 3857 473d
000002c0: 0881 5c3d 04c5 2d3d 701c 50bd 06ca a7bd
000002d0: f069 9c3c 1cfb 043d f09c 23bd ef26 34bd
000002e0: c1e4 c9bd ae5a 293e 45fa 573e a898 f13d
000002f0: bd73 7dbd 35de 9f3d d130 563d 1164 a53d
00000300: caa2 42bb 9f75 713c e32e 11be 0081 debd
00000310: a2d5 b43c 57bd 49bd 0d68 973e 8eb9 3a3d
00000320: d599 13bd 14dd 9bbb 16f8 163e 29b7 ff3b
00000330: 4650 15bc 23e5 46bc eb74 903d a447 19bc
00000340: 8bcf 1bbe 46ab 7c3e 3fb8 5d3e 2169 eb3c
00000350: fdb7 bb3d b810 33bd 32c7 503d ad8e 2f3d
00000360: ea4e 643d cf2b fcbd e37f 003d 480f 20be
00000370: 11d5 883e 42ff 1d3d a7e2 793c e76a 173d
00000380: f15f b6be 8c4c f5be f064 da3e 7a51 ba3e
00000390: f404 a23c de23 b53d 6191 66bd 16b4 913d
000003a0: 2899 4bbc 380e 9fbc 55ae 59bd 5065 a73c
000003b0: b07f 683c 5c15 363d 7852 5fbd 8e75 a9bd
000003c0: acb0 a33e 9853 4ebe 9c9e 9b3e d1d3 8bbe
000003d0: ee35 82be 9d3b 203e 4994 3abe 1808 883d
000003e0: 51e5 b0bc 1acd 54bd 00d6 eebb 7da2 503d
000003f0: be57 71bd 90c6 b1bb 0029 ec3c a6a3 8b3d
0.15763262 0.20880783 1.2351761 0.034211665 0.022859536 0.010947953 0.023667647 -0.050524432
-0.010725356 -0.0008088875 -0.05648748 -0.08241128 -0.015391916 -0.08483026 -0.028032683 0.012186237
0.043937907 -0.037743673 0.060305983 0.04303123 -0.0006872341 -0.047191974 -0.07312694 0.031098835
0.0023966432 0.0058052987 0.008716762 0.076556325 0.07883941 0.02166082 0.06466049 -0.044345085
0.012153655 0.016223982 -0.066968575 -0.028854076 -0.030641455 -0.027501494 0.0650765 0.04622297
0.07051906 -0.04681636 -0.072336905 0.07438555 -0.05274355 -0.035067514 -0.026109233 0.08994892
0.035601154 -0.055611607 0.070924744 0.0020385757 -0.064495295 -0.0034987032 0.012437455 0.036412805
0.083603784 -0.05901154 -0.023668252 -0.012514427 -0.066929474 0.08315092 -0.036104813 -0.056843687
-0.02592867 0.10726801 0.0020183271 -0.01671518 0.025296578 0.0032199628 -0.09270634 -0.033655148
-0.07074543 0.035270795 0.0066174334 0.09403884 -0.031414054 -0.027025856 -0.014893548 -0.00991961
-0.030410048 0.020368071 0.032085598 0.06175813 -0.100907706 0.00067700463 0.006443799 0.018081108
-0.06186835 0.05088925 -0.057455137 0.06163198 -0.0539373 -0.07879429 0.030284593 0.061464287
-0.03861018 0.03954696 -0.031960327 0.09710995 -0.010686603 0.14510135 0.000862866 0.081836544
-0.19634812 -0.20425059 0.0015166056 -0.04601856 0.01178822 -0.022677789 0.090360984 -0.0015322044
0.0723308 0.057174176 0.06256755 -0.065992616 -0.057302374 0.08061594 -0.03161494 -0.048124988
0.18339488 -0.11689672 -1.9928373 0.34479174 -0.08333696 -0.12388892 0.02845927 -0.005792899
0.088133216 -0.16089776 -0.015011467 0.060054123 0.0533354 -0.03628362 0.057131365 0.072610304
0.07053095 0.020351708 -0.07361783 0.032110363 0.035221085 -0.03396467 -0.019447505 0.014101192
-0.032466326 -0.055719797 0.017211124 0.05098498 -0.010447226 -0.050795984 0.08809538 -0.02863308
0.059345275 -0.06617473 -0.027026765 -0.041653648 0.0907502 0.07330549 -0.053028516 0.043921888
-0.057402946 0.08568896 0.07091552 -0.0070525184 0.0319535 -0.088626765 -0.019549213 0.0394125
-0.042502467 -0.08058966 0.03494069 0.04766518 0.025063224 -0.034652833 -0.058706958 0.048667163
0.05383399 0.042424217 -0.05080837 -0.0819283 0.019093484 0.03246604 -0.03994459 -0.043982442
-0.098580845 0.16538498 0.21091564 0.11796695 -0.061877955 0.078060545 0.05229265 0.08075727
-0.002969908 0.014737516 -0.14178042 -0.108644485 0.022074524 -0.049252834 0.29571572 0.045587115
-0.036035378 -0.004756579 0.14743075 0.007803817 -0.009113377 -0.012139591 0.0705355 -0.009355459
-0.1521589 0.2467471 0.21652316 0.028736653 0.09165952 -0.043717116 0.050971217 0.042860676
0.05573932 -0.12313043 0.031371962 -0.1563083 0.26725057 0.03857351 0.015251792 0.036967184
-0.35620072 -0.47909963 0.42655134 0.36390287 0.019777752 0.08844732 -0.056290988 0.07114427
-0.012426652 -0.01941596 -0.05314477 0.020434052 0.014190599 0.044453964 -0.054522008 -0.08274375
0.31970727 -0.20149076 0.30394447 -0.2731004 -0.2543177 0.1564774 -0.18220629 0.06642169
-0.021593722 -0.051953413 -0.0072886944 0.05093621 -0.058921568 -0.005425282 0.028828144 0.06818323

net.0.bias f4 [128]
00000000: 3e18 4dbe 89c1 2e3f 047d d6be fd9d 2b3f
00000010: 759f 30bd 4c4b 133f 81ba c43e fd0b 27be
00000020: a414 013e 3506 66be bcdf d5bc bb59 0ebe
00000030: 35b1 8cbe c198 773e 017c 8dbe 4441 6cbe
00000040: 6560 033f c865 093f f642 9f3e 0962 49be
00000050: 6980 c9bd 315a 383f b88d db3e 2153 173f
00000060: cf0a 3abc 0346 003f 63cc 083f 924b 8abd
00000070: 5d95 f1bd 832a 5cbe d531 253e a9ee 263f
00000080: 1fd3 02be bfd9 373f 4eb7 353f 46d2 043f
00000090: e767 9e3d 78fa ec3e bb2b a6be 963b 183f
000000a0: 070d 803d 09ce e03e aa22 e83e 7956 a33e
000000b0: a6fb fb3e d2d1 7bbd e4d9 c03e de19 093f
000000c0: f2bc 20be 2b1d d23d a8f1 e9bd 0ea8 933e
000000d0: 77d7 b3bd fa29 39bd 3af0 babd dc80 8bbe
000000e0: e7c1 cbbd 38c2 99bd 933f 203f 1d19 42be
000000f0: 4fa8 8bbd da36 183f 6629 323f ff52 9cbe
00000100: 4ecd e83a 7c57 b23e 9a0b f83e 84a8 343f
00000110: ae7b bcbe 03c9 403d a267 8b3e 7fcf e0bd
00000120: 2272 133f 5651 273f a3c4 eebd fd0f 193f
00000130: 3427 48bd 4920 f83e 2617 bc3e 5b53 143f
00000140: acf7 4dbe 37c3 3bbe cb17 143e 2434 2bbe
00000150: 2f7f 48be 6f30 013f 307c 113f 91f6 61be
00000160: 06e5 f33e db97 62bd 6b06 193f c887 10be
00000170: 0368 a43e 32f4 c23e 5207 f23e cad9 1d3f
00000180: 2703 9abd 6c3b 0fbe 3053 ce3e 0bc2 16be
00000190: dacc 3a3f fd6b 133e 609b 683e b52c 91bc
000001a0: 11be bb3e f9ec c63e 1e14 c83e d0e7 51bd
000001b0: 3ae8 1f3f 8780 213f 55de 123f 38bc ea3c
000001c0: 12ab abbd d2e8 883e a530 c13e 2a70 9cbd
000001d0: b67a 033f 87e2 14be 460c 22be 67d6 e03e
000001e0: bce2 c73e ca81 b0bd 2fa4 f93c dd44 4a3c
000001f0: 5b12 8cbc fb63 b53c 8e65 123f 8634 d83e
-0.20028779 0.6826406 -0.41892254 0.67037946 -0.04312082 0.5753677 0.3842354 -0.16313167
0.1260553 -0.22463305 -0.026107661 -0.13901417 -0.27478948 0.24179365 -0.2763367 -0.23071772
0.5131896 0.5367093 0.31105775 -0.19666304 -0.098389454 0.7201262 0.4288156 0.5911122
-0.011355116 0.5010683 0.5343687 -0.06752695 -0.11796067 -0.21500592 0.1613229 0.65207916
-0.12775849 0.7181663 0.70982826 0.5188335 0.077346615 0.46284842 -0.3245524 0.5946592
0.06252485 0.43907192 0.45338947 0.3190191 0.4921543 -0.061479397 0.37666237 0.53555095
-0.15697077 0.102594696 -0.114230454 0.28839153 -0.08781331 -0.045206048 -0.09127851 -0.2724675
-0.09949093 -0.075077474 0.62597007 -0.18954892 -0.06819212 0.59458697 0.6959442 -0.3053207
0.0017761381 0.3483237 0.4844635 0.70569634 -0.3681311 0.0470667 0.27227503 -0.10977077
0.5759603 0.65358484 -0.11658599 0.5979002 -0.048865512 0.48462132 0.3673641 0.5793969
-0.2011401 -0.18336187 0.14462201 -0.16719109 -0.19579767 0.5046453 0.5683012 -0.22066714
0.4763567 -0.055320602 0.5977542 -0.14114296 0.32110605 0.3807693 0.4727121 0.61660445
-0.075201325 -0.13987511 0.40297842 -0.14722459 0.7296883 0.14396663 0.22715521 -0.017721513
0.36668447 0.3885267 0.39077848 -0.051246464 0.62463725 0.6308674 0.573705 0.028654203
-0.083822384 0.26740128 0.37732425 -0.07638581 0.5135912 -0.14539538 -0.15824994 0.43913576
0.39040172 -0.08618505 0.030473797 0.01234552 -0.017098596 0.022142401 0.5718621 0.42227572

net.2.weight f4 [128, 128]
00000000: 0eb5 403e 1457 95bf 0110 d2be b6ec 1e3e
00000010: 531c 1d3e 9552 343d 96dd d33c 0a8e 09bf
00000020: 269c acbd a2a6 193e ee50 8d3e a38c 563e
00000030: e2dd 7e3e bcaa a5bb 7958 ebbf 8a7c 503e
00000040: 1c53 c43d e17d 0ebd b53f fabc 5654 393d
00000050: 7666 aa3e 329b 313d 04db 8f3d 7c61 433e
00000060: 034e 263e 8d60 6d3e 02f6 123d 16b9 8d3e
00000070: f708 453e 15a9 4d3e 2699 d33e a6ad fd3d
00000080: 1432 a23e 55ae 373e 2a18 44bf 4d35 c1bc
00000090: 2b57 ecbe faf9 d7bc 4e70 a6bf 8e1b 353d
000000a0: 408e cebf 1116 683e e8e5 8c3d 119e 3abe
000000b0: 694a 223d 52a9 c5bc 4fec 0bbe ffd9 8639
000000c0: 3120 6b3e 6359 623f 4e05 483d 222d 693d
000000d0: 00d1 2939 7d9b 08bf 5c59 f33c 2e3a 313e
000000e0: 979a 29bf 82b3 2f3d cd0a 793d 7fd4 213e
000000f0: 80e7 e9bb c38f 6d3e d094 463e 08da 0d40
00000100: 34d6 8abf 1b84 18bf 39cf c53c c9b6 a63d
00000110: 3fbe 593e 1e45 9f3e f412 8e3c 657d f03d
00000120: 22e5 693b 6fa0 523e 21c1 2e3e 278e 2e3e
00000130: 2c06 c13c 4a96 ab3e 0345 93bb 737b c83c
00000140: ffd6 a53d 8685 9ebf e108 75bd 4682 923e
00000150: ec3e 653e b3d8 3b3d e334 8dbf 9615 773e
00000160: ab4d 12bd a952 15bf 8672 203e 2c86 dd3d
00000170: 6422 bb3b 27d4 0b3e 233f 08bf 9ac2 973d
00000180: cd46 023f f47d 513e 093e 1b3e fc77 913e
00000190: 4fb4 833b 5884 f4be 0d6e a9bd 26f6 973e
000001a0: 3229 1bbf 5c1c 763c 04e7 493e fb66 1b3f
000001b0: 9b1b 083d 35bf c43d f191 83bd 9744 f63e
000001c0: 358b e33d 05ea c0bd f02a 9fbe a061 043f
000001d0: 91fa b63d e0ef 133e 93a1 4a3e a0e6 fa3e
000001e0: 788a 4cbe 8749 61bf 3335 76bc ec40 d6bf
000001f0: ea72 403d 2d65 2dbf 82c1 a73d ddf9 423d
00000200: 6b62 a93d a15a 21bf 73e3 21bd 31d9 a8bc
00000210: 30ff 153e f686 07bd acfc eebc a857 373f
00000220: 96f6 a03d 7c91 2f3d ffde a5be 8cce fd3d
00000230: a1cc 1a3d 6d3f b93c bab7 fa3f 96b9 063e
00000240: 472a 163d 7bf8 523d 5e55 f8bc 917a ec3d
00000250: 9642 973d 6e82 8b3d 0ba7 633d 4011 40bd
00000260: 2a99 db3d 3335 e33c c520 b9bd 9124 f0bd
00000270: 972b 26be fef3 233d f095 2ebe 7724 283e
00000280: 3777 273e 4494 3c3d 7163 f13e c902 1dbd
00000290: cab0 cabc 5cb9 1ebc 0fe2 c13f a3c4 c83b
000002a0: 5c40 3e40 f21a a63d cd51 2b3d 9c5c 813e
000002b0: ea6f 543d 558d 8e3c b662 403d e9e0 0dbd
000002c0: 06d7 0e3e f583 8abe b3c4 f23c 05ec cbbd
000002d0: 9eeb 3f3d c5db aa3d 2d9b 07bd 4ab0 ab3d
000002e0: b404 96bd 22a0 64bd a497 b8bd 9743 0e3e
000002f0: 00dd 8239 f89f 15bb 2dfa 14be 484e e1bf
00000300: 4869 c33f dbba 2f3f a5ef 48bc 6bde e9bc
00000310: 5f69 663e 7edf bbbd e891 93bd 1a94 4e3e
00000320: 5a78 5cbd 60a2 01bf a993 c63d d299 083c
00000330: a993 a83d 3933 afbe bd54 e4bc 7fce dfbd
00000340: c870 023e a277 293f 4868 0fbb b2f2 bb3d
00000350: 8662 f53d 83c6 863d be03 403f 9831 c73d
00000360: 44ae 30be 50ba 7abe dbd6 1cbd 917e 8d3d
00000370: 8a2e 5ebc ee74 74bc 0006 62be 6640 223d
00000380: b437 b4bc 82f7 a43d 8fbd aabd d13d 433e
00000390: 405d c0bd 8666 103e 87f8 033e 6e68 003e
000003a0: bae9 8f3f fceb 523c f7da 9cbe b235 9ebd
000003b0: 77ee f0bd f66a 023e f219 233c 172d 20be
000003c0: 38b6 053e 00ba b43f 1ecc 33bd 155f f9be
000003d0: 76e9 d03c 78fb da3d f15f 043e d57b f0be
000003e0: 389f 833d 4cf9 b13e ab31 c6be d9f1 fd3f
000003f0: b9b3 ad3e 544e e63e a624 c53d 5c55 08be
0.18819067 -1.1667199 -0.41027835 0.15519986 0.15342836 0.04402407 0.025862496 -0.5373236
-0.084282205 0.15004972 0.27600807 0.20952086 0.24889329 -0.0050557535 -1.8386375 0.20360008
0.09586164 -0.034788016 -0.030547956 0.045246445 0.33281296 0.043360896 0.07024196 0.19080156
0.16240697 0.23181362 0.035879143 0.27680272 0.19241701 0.20084031 0.4132778 0.123866364
0.31678832 0.17937596 -0.7659937 -0.023584986 -0.46160254 -0.026364315 -1.3003023 0.04421573
-1.6137161 0.22664668 0.06879789 -0.1822436 0.039621744 -0.02412859 -0.13664363 0.0002572089
0.22961499 0.88417643 0.048833184 0.056927808 0.00016194955 -0.53362256 0.029705696 0.1730735
-0.6625151 0.0428958 0.060801316 0.15803717 -0.0071381927 0.23199372 0.19392705 2.2164326
-1.084662 -0.59576577 0.024146663 0.08140332 0.2126398 0.3110742 0.017343022 0.11742667
0.0035689552 0.20569013 0.1706586 0.17046414 0.023562513 0.335131 -0.004494311 0.024472928
0.08097648 -1.2384498 -0.05982292 0.28615016 0.22387284 0.045860957 -1.1031765 0.24129328
-0.0357186 -0.58329254 0.15668687 0.10816607 0.005710887 0.13655148 -0.5322134 0.07410164
0.50889283 0.20458204 0.15160383 0.28411853 0.004019297 -0.4775722 -0.08272944 0.29679984
-0.60609734 0.01502141 0.19717032 0.6070401 0.03322945 0.09606782 -0.064243205 0.48099205
0.11110536 -0.09419636 -0.31087446 0.51711464 0.089345105 0.14446974 0.19788198 0.49004078
-0.19974697 -0.8800282 -0.015027332 -1.6738563 0.04698459 -0.67732507 0.081912056 0.04760157
0.08270725 -0.63028914 -0.039523553 -0.020611377 0.14648128 -0.033087693 -0.029173218 0.7161813
0.078595325 0.042863354 -0.32396695 0.12392911 0.037792806 0.022613252 1.9587319 0.13156733
0.036661413 0.0515065 -0.030314144 0.11546815 0.07385747 0.06811987 0.055579226 -0.04689145
0.10722573 0.027735328 -0.090394534 -0.117257245 -0.16227566 0.04002761 -0.17049384 0.1642016
0.1635407 0.046039835 0.4714618 -0.038332734 -0.024742503 -0.009687748 1.5147113 0.0061269565
2.9726782 0.08110608 0.04182606 0.25265968 0.051864542 0.017401377 0.046969138 -0.03463832
0.13949212 -0.270538 0.02963481 -0.099571265 0.04685556 0.08342699 -0.03310697 0.08383234
-0.07325116 -0.055816777 -0.09013298 0.13892971 0.0002496019 -0.0022830945 -0.1454856 -1.7602015
1.5266504 0.68644494 -0.012264167 -0.02854844 0.22501133 -0.09173487 -0.07205564 0.20173684
-0.053825714 -0.5063839 0.09696133 0.008337455 0.08231289 -0.34218767 -0.027872438 -0.10928058
0.12738335 0.6619817 -0.0021882225 0.0917715 0.119816825 0.06580832 0.7500571 0.09726256
-0.17253977 -0.24485135 -0.03829084 0.06908906 -0.0135609 -0.014920456 -0.22072601 0.039612196
-0.021999218 0.08055021 -0.08336937 0.1906655 -0.09392786 0.1410161 0.12887774 0.12539837
1.1243203 0.012873646 -0.30635807 -0.07725085 -0.117642336 0.12736115 0.009954916 -0.156422
0.13057792 1.4119263 -0.043895833 -0.48705354 0.025501948 0.10692495 0.12927224 -0.46969476
0.06426853 0.3476051 -0.3870977 1.9839431 0.3392618 0.44981635 0.09626131 -0.13313812

net.2.bias f4 [128]
00000000: f8bb 413d 4f92 53be f9d8 033d ff72 853e
00000010: e3f0 d73d f751 0d3f 50ae 033f 5883 b4bd
00000020: 30f5 bbbe f29f 1b3e e0dd 023e 935c 243f
00000030: cd0e 6f3e dac9 d13d 0bc6 9cbc fbe7 aebd
00000040: 5a98 813d 171f d63d 5a3f 00bf a576 b0bd
00000050: 89c2 97be 024e 94bc d820 8dbc c8de fe3c
00000060: 89f8 d0bd e063 30bc 57d9 cc3c d863 5a3d
00000070: c218 cdbb 3a5b ad3d 0b48 4c3d 1839 363e
00000080: 8b7a 6dbd 0b8d 863d 04cf d53d da4a 0c3d
00000090: e696 e43e 26cb 33bd 5279 80bd 99a7 ed3e
000000a0: 034a 7c3d cb9b a23c c12d 223f db6c c03d
000000b0: 8c79 783e a073 3ebd 4a96 d03e 8ee4 a1bd
000000c0: fcc0 acbd fef2 a7bd 1bd6 293e 9360 39bd
000000d0: 9b2f 193e c103 00be ea0c 95bd a473 863d
000000e0: d9d6 203f 6108 a53d 218b 093d 9057 1f3f
000000f0: 70d1 d6bd c83b 4c3e 7f37 053d adef 3b3d
00000100: 0f1d b23d d619 413e f626 213e 388d da3e
00000110: cb25 a3bd 462c 523e 7849 233f f332 073f
00000120: 6b8d 9fbc 22c8 863e 23c1 cbbc f085 693d
00000130: 0cba 3e3e aa8a 3b3d ded6 243e 6fdc 263f
00000140: 8526 a4bd e0d2 953e 4979 3f3c f91f e73d
00000150: 53f8 9fbd a621 d5be 26a9 7d3e 7fe2 463d
00000160: 1ef5 a9be 2421 ec3e ac53 ff3c 3ee3 193f
00000170: 618a a3bd 455b 9f3e 4c7e 38bd 8b26 f03d
00000180: a46b 003f a9b2 823d 65a8 cd3d 5b83 2b3f
00000190: 77f7 21bd a090 fd3e fc33 8a3e 9561 923c
000001a0: d2e0 bb3d 02b9 293d a337 5a3e a38e 47be
000001b0: 0c4d 603e 34c7 a5bd 2741 73bc 5706 bf3c
000001c0: d163 04bd bbf6 e03e 11bd b2bd 84ab 6ebd
000001d0: 19d8 ac3b a529 353e a3ea 883b e991 5a3d
000001e0: aa7d 97bd 5815 ed3d 0cf3 89be f1e4 54be
000001f0: 4528 d43c a769 07bd 2890 c03d 3a17 97bc
0.0472984 -0.20661281 0.032189343 0.26064298 0.10543992 0.55203193 0.51437855 -0.08814114
-0.367105 0.15197733 0.12779951 0.6420376 0.2334549 0.10243578 -0.019137403 -0.085403405
0.06327887 0.10455149 -0.50096667 -0.0861638 -0.29640606 -0.018103603 -0.017227575 0.03111209
-0.10203654 -0.010766 0.02500598 0.053317875 -0.006259055 0.08464666 0.049873393 0.17795217
-0.057978194 0.065698706 0.10439876 0.03425107 0.44646376 -0.04389491 -0.0627314 0.4641693
0.06159402 0.019849679 0.63351065 0.093957625 0.24265116 -0.046496987 0.4073966 -0.079049215
-0.08435246 -0.08200644 0.16585581 -0.045258116 0.14959566 -0.12501432 -0.07277854 0.065650254
0.6282783 0.08058239 0.03357995 0.62242985 -0.10489166 0.1994468 0.03252363 0.04588287
0.08696949 0.18857512 0.15737519 0.42685866 -0.07966193 0.20524701 0.6378398 0.5281212
-0.019476613 0.26324564 -0.024872368 0.0570125 0.18625659 0.045786537 0.1609759 0.65180105
-0.080151595 0.29262447 0.0116866315 0.11285395 -0.07811036 -0.41627234 0.24771556 0.048555847
-0.33194822 0.46119034 0.031167828 0.6011237 -0.07985378 0.3112432 -0.04504232 0.117261015
0.50164247 0.06381733 0.10041884 0.6699731 -0.03954264 0.49524403 0.26992786 0.017868796
0.091737404 0.041436203 0.21310286 -0.19488005 0.21904391 -0.080946356 -0.0148470765 0.023318453
-0.032321755 0.4393824 -0.08727468 -0.05826904 0.0052747843 0.17691667 0.0041783615 0.053361807
-0.073970154 0.115763366 -0.26943243 -0.20790459 0.025898108 -0.033059742 0.094024956 -0.018443692

net.4.weight f4 [18, 128]
00000000: c019 803e 51a3 5cbe 6985 2bbf e2c3 5fbe
00000010: 9acb 7b3e 2cb7 76be ce1e ccbe 493f 853d
00000020: 8a5a 56be 44d6 3bbe ff00 9abd eb5c debe
00000030: 8bc5 b63d 66a5 603e 1fef 01bc 8910 773d
00000040: a553 e2bd bdb3 8f3e 50ce 01be 0b21 783d
00000050: 85cb 16be 022d 923d f057 8fbb 19fa 5abd
00000060: 5d85 b5bd 7299 913c 51d7 38bc f700 e63c
00000070: 850e c3bd e185 7e3d 214c 9abc 64e6 583e
00000080: 7f67 ab3d 109d 9a3d 8ae5 88bd cc4b 813e
00000090: 04f8 adbe 1af0 a7be c683 073d ee8b bbbe
000000a0: 9554 b03d c3a3 8d3c dcf5 abbe 0636 b13d
000000b0: 23a9 f33e 1e97 6abd a441 b9be cc9b 8d3c
000000c0: b855 b5bc c2a3 10bd 002d 703e f0b1 19bc
000000d0: 8a6c 81bd 889b cabb 71e7 15c0 db76 a8bb
000000e0: 3d31 97be 1ede 3f3d 01ee 013d 57f9 94be
000000f0: 01e0 a5bf aeb3 953e d1db 1cbd 7e33 51bd
00000100: 0843 913e 203b 543e 4cc7 47bf 77fe a5be
00000110: 6616 053d 594a 623e f02a b0be f4b5 c3be
00000120: 6caf 66bd 1551 26bf afd6 a1bd 25f2 59be
00000130: 5430 853e 9442 b63b f531 6b3e 3ce5 e7be
00000140: 5037 33bd 3b17 74be 73b0 a43d fd2a 773e
00000150: b53b a7bd 3e5a 50be e74a 65be fe59 6a3c
00000160: 1eb4 6dbe adcf 91be 3e37 71bd 6b81 d5be
00000170: 706f c1bc 693d 8bbf cb30 6bbd a6d8 3dbd
00000180: 40fe 9ebe 5773 54bd cd3c c23e 934e c4be
00000190: 6a90 96bd 2432 9bbe 0cca 96bf f08f 343c
000001a0: cc27 0cbe 74a2 c6be 7db3 c6be 8241 58be
000001b0: 9d5b 32bf dbfd 973d a539 1bbe 184f 8d3e
000001c0: c000 61bb 9649 b4be c0b8 06bd 54ce f3bc
000001d0: 6613 bebc 93cc 373e 5f50 b3bd c045 f7bd
000001e0: bcba 33bd 5dd4 f4bd b98c b1be 742a 1abe
000001f0: 7d18 84be db75 623c bacc acbd 71f5 013d
00000200: 830b 673e 0eee 6dbe b5c2 95bf a5a1 42be
00000210: cefe 813e a3d9 c5be 82b1 babe 4882 733c
00000220: 49a0 4ebe 25ec 72be 728a a0bd 7b32 aabe
00000230: de27 a93c b26f 9b3e 093e c83c eb51 173d
00000240: 0547 0bbd 3520 9a3e d319 14be 04a0 bb3c
00000250: 49c3 1dbe c7dc ab3d 5c83 d83c 3cb6 0cbe
00000260: 662e 94bd b8cc 363c cf93 91bd d5e6 ebbb
00000270: 94e6 afbd 1359 8b3d 9854 87ba f706 863e
00000280: 4efc 52bd 9165 6dba f8a0 6abc 9f25 903e
00000290: f762 b4be a8c5 80be 0c35 a1bc a5db b0be
000002a0: 08fc ea3c 7f87 943d c02e afbe cede ff3d
000002b0: 8078 fd3e 67c8 cdba 175f 7dbe 3f12 59bd
000002c0: a927 1e3d 0eff 05bd 3782 0c3e 544f da3c
000002d0: 3928 6bbb c8f4 c4bd fe24 03c0 2703 bbbc
000002e0: 7fdd a2be 5fa6 b9bd d95a ddbc cd40 d1be
000002f0: 24e1 b7bf c4a6 c53e 566a 08bc ae5b 55bd
00000300: 7111 743e 440a 783e 70cf 3ebf a82f d0be
00000310: 53e1 24bd 96e5 bb3e 180e d3be 0aa4 94be
00000320: 2880 03bd 26f9 33bf ff70 3abd a889 5cbe
00000330: 2f96 613e 312c 9abd 349e 193e 47ec cabe
00000340: ced3 4d3d 1290 85be 6458 793d 120d 3d3e
00000350: b26d 343d 6109 43be a71f 93be 1cf4 9c3d
00000360: a664 11be ef59 afbe da4f 7cbd 4089 adbe
00000370: 2674 e13c d166 9abf 5297 9abd 4a58 0abe
00000380: 2e47 aabe b729 4bbd cd3f c13e 35be d6be
00000390: 6238 afbd 0abb 49be 20dc 89bf 212a 873d
000003a0: 6cbc bfbd 6c64 b5be 47cc b2be 9c79 75be
000003b0: ba3e 25bf 0b60 2ebd 5b84 ddbd df74 9a3e
000003c0: 4726 903d afa4 a7be 4fb1 04bd 9595 a4bd
000003d0: 59ab 64bd d9ea 0e3e de69 b9bd f267 80bd
000003e0: 378f 84bd 4252 1dbe 1f6d bebe ecc6 3dbe
000003f0: 538b 73be a67a ae3d 882c 0ebe 5167 d13c
0.25019646 -0.21546675 -0.6700044 -0.21852067 0.24589387 -0.24093312 -0.39867252 0.06506211
-0.20932975 -0.18343455 -0.07519721 -0.43430266 0.08924397 0.21938094 -0.007930546 0.060318504
-0.1105111 0.28066817 -0.12676358 0.060578387 -0.14726074 0.07137491 -0.0043744966 -0.053461168
-0.08863328 0.017773364 -0.011281804 0.028076632 -0.09524254 0.062139396 -0.01883513 0.21181637
0.0836935 0.075494885 -0.06684406 0.2525314 -0.33978283 -0.3280037 0.033084653 -0.36630195
0.08609883 0.017290002 -0.33586013 0.08652882 0.4758998 -0.057273023 -0.36182892 0.017286204
-0.0221356 -0.03531242 0.23454666 -0.0093808025 -0.0631953 -0.0061830916 -2.342251 -0.005141122
-0.29529753 0.046842687 0.03172112 -0.2909648 -1.2958986 0.29238647 -0.03829557 -0.051074497
0.28371453 0.2072568 -0.7803848 -0.32420704 0.032492064 0.22098674 -0.3440776 -0.38224757
-0.05631964 -0.6496747 -0.07902276 -0.21283777 0.26013434 0.005562136 0.22968276 -0.4529208
-0.043753922 -0.23836987 0.080414675 0.24137492 -0.08165685 -0.20346925 -0.22391854 0.014303682
-0.2321324 -0.28478757 -0.058890574 -0.417003 -0.023612708 -1.0878116 -0.05741958 -0.04634919
-0.31053352 -0.05186781 0.37937012 -0.38341197 -0.073517635 -0.30311692 -1.178041 0.0110206455
-0.13687056 -0.38795817 -0.38808814 -0.21118739 -0.6967104 0.07421466 -0.15158708 0.27599406
-0.0034332722 -0.35212392 -0.032891035 -0.02976147 -0.02320261 0.17949133 -0.08755564 -0.12073851
-0.043879256 -0.119545676 -0.34677675 -0.15055257 -0.25799933 0.013822044 -0.08437486 0.03172821
0.22562985 -0.23235342 -1.1700045 -0.19006975 0.25389713 -0.38642606 -0.36463553 0.014862604
-0.20178331 -0.23722894 -0.07838906 -0.3324164 0.020648893 0.30358654 0.024443643 0.036943357
-0.034003276 0.30102697 -0.14462976 0.02290345 -0.15406527 0.08391719 0.026429825 -0.13741392
-0.07235412 0.011157207 -0.071082704 -0.007199148 -0.08588901 0.06804099 -0.0010324894 0.2617719
-0.051510148 -0.0009055967 -0.0143206045 0.28153703 -0.35231754 -0.251508 -0.019678615 -0.34542575
0.028684631 0.07252406 -0.34215355 0.124936685 0.49505997 -0.0015699983 -0.24743305 -0.052995916
0.03861204 -0.032713942 0.13721548 0.026649155 -0.003588213 -0.09617001 -2.0491328 -0.022828652
-0.31809613 -0.09064936 -0.027020859 -0.40869752 -1.4365582 0.38603795 -0.008326134 -0.052089386
0.23834778 0.24222666 -0.74535275 -0.4066136 -0.04025395 0.36698598 -0.4122169 -0.29031402
-0.03210464 -0.70302045 -0.045517918 -0.21536887 0.22029947 -0.0752796 0.15001756 -0.3963339
0.05025082 -0.2608648 0.06087531 0.18462017 0.044049926 -0.19046547 -0.28735086 0.07663748
-0.1419855 -0.342483 -0.06159959 -0.33893776 0.027521204 -1.2062627 -0.07548393 -0.13510242
-0.3325743 -0.04960033 0.3774399 -0.4194199 -0.08555676 -0.19700256 -1.0770302 0.06599832
-0.093621105 -0.35428178 -0.34921476 -0.23972172 -0.6454884 -0.042572062 -0.108162604 0.3016729
0.07038551 -0.3274283 -0.032395657 -0.08036343 -0.055827472 0.13956775 -0.09053396 -0.06269826
-0.064726286 -0.1536341 -0.37192628 -0.18532914 -0.23783617 0.08519487 -0.13884175 0.02556196

net.4.bias f4 [18]
00000000: fd1d 18bd b8bc cbbd 31f5 1d3c f8d7 1dbd
00000010: 4126 803d cd91 1c3c 5834 b9bd 7536 0fbd
00000020: 684c 8cbc 7cb1 29b9 ae7d 1e3e 53c8 123e
00000030: a842 f0bd 5853 183c 4d90 923a ea11 803d
00000040: b244 2c3e 9e5b c03d
-0.037137974 -0.099481046 0.009640978 -0.038536042 0.06257296 0.009556246 -0.09043187 -0.034964044
-0.017126277 -0.00016183214 0.1547763 0.1433423 -0.11731464 0.009297214 0.0011181921 0.06253417
0.1682308 0.093924746
